…
    "body": "```bash\r\n(base) bzhou@Desktop:~/Repos/llama.cpp$ python convert.py models/13B\r\nLoading model file models/13B/consolidated.00.pth\r\nLoading model file models/13B/consolidated.01.pth\r\nparams = Params(n_vocab=-1, n_embd=5120, n_layer=40, n_ctx=4096, n_ff=13824, n_head=40, n_head_kv=40, f_norm_eps=1e-05, rope_scaling_type=None, f_rope_freq_base=None, f_rope_scale=None, n_orig_ctx=None, rope_finetuned=None, ftype=None, path_model=PosixPath('models/13B'))\r\nLoading vocab file 'models/tokenizer.model', type 'spm'\r\ntok_embeddings.weight                            -> token_embd.weight                        | BF16   | [32000, 5120]\r\nnorm.weight                                      -> output_norm.weight                       | BF16   | [5120]\r\noutput.weight                                    -> output.weight                            | BF16   | [32000, 5120]\r\nlayers.0.attention.wq.weight                     -> blk.0.attn_q.weight                      | BF16   | [5120, 5120]\r\nlayers.0.attention.wk.weight                     -> blk.0.attn_k.weight                      | BF16   | [5120, 5120]\r\nlayers.0.attention.wv.weight                     -> blk.0.attn_v.weight                      | BF16   | [5120, 5120]\r\nlayers.0.attention.wo.weight                     -> blk.0.attn_output.weight                 | BF16   | [5120, 5120]\r\nlayers.0.feed_forward.w1.weight                  -> blk.0.ffn_gate.weight                    | BF16   | [13824, 5120]\r\nlayers.0.feed_forward.w2.weight                  -> blk.0.ffn_down.weight                    | BF16   | [5120, 13824]\r\nlayers.0.feed_forward.w3.weight                  -> blk.0.ffn_up.weight                      | BF16   | [13824, 5120]\r\nlayers.0.attention_norm.weight                   -> blk.0.attn_norm.weight                   | BF16   | [5120]\r\nlayers.0.ffn_norm.weight                         -> blk.0.ffn_norm.weight                    | BF16   | [5120]\r\nlayers.1.attention.wq.weight                     -> blk.1.attn_q.weight                      | BF16   | [5120, 5120]\r\nlayers.1.attention.wk.weight                     -> blk.1.attn_k.weight                      | BF16   | [5120, 5120]\r\nlayers.1.attention.wv.weight                     -> blk.1.attn_v.weight                      | BF16   | [5120, 5120]\r\nlayers.1.attention.wo.weight                     -> blk.1.attn_output.weight                 | BF16   | [5120, 5120]\r\nlayers.1.feed_forward.w1.weight                  -> blk.1.ffn_gate.weight                    | BF16   | [13824, 5120]\r\nlayers.1.feed_forward.w2.weight                  -> blk.1.ffn_down.weight                    | BF16   | [5120, 13824]\r\nlayers.1.feed_forward.w3.weight                  -> blk.1.ffn_up.weight                      | BF16   | [13824, 5120]\r\nlayers.1.attention_norm.weight                   -> blk.1.attn_norm.weight                   | BF16   | [5120]\r\nlayers.1.ffn_norm.weight                         -> blk.1.ffn_norm.weight                    | BF16   | [5120]\r\nlayers.2.attention.wq.weight                     -> blk.2.attn_q.weight                      | BF16   | [5120, 5120]\r\nlayers.2.attention.wk.weight                     -> blk.2.attn_k.weight                      | BF16   | [5120, 5120]\r\nlayers.2.attention.wv.weight                     -> blk.2.attn_v.weight                      | BF16   | [5120, 5120]\r\nlayers.2.attention.wo.weight                     -> blk.2.attn_output.weight                 | BF16   | [5120, 5120]\r\nlayers.2.feed_forward.w1.weight                  -> blk.2.ffn_gate.weight                    | BF16   | [13824, 5120]\r\nlayers.2.feed_forward.w2.weight                  -> blk.2.ffn_down.weight                    | BF16   | [5120, 13824]\r\nlayers.2.feed_forward.w3.weight                  -> blk.2.ffn_up.weight                      | BF16   | [13824, 5120]\r\nlayers.2.attention_norm.weight                   -> blk.2.attn_norm.weight                   | BF16   | [5120]\r\nlayers.2.ffn_norm.weight                         -> blk.2.ffn_norm.weight                    | BF16   | [5120]\r\nlayers.3.attention.wq.weight                     -> blk.3.attn_q.weight                      | BF16   | [5120, 5120]\r\nlayers.3.attention.wk.weight                     -> blk.3.attn_k.weight                      | BF16   | [5120, 5120]\r\nlayers.3.attention.wv.weight                     -> blk.3.attn_v.weight                      | BF16   | [5120, 5120]\r\nlayers.3.attention.wo.weight                     -> blk.3.attn_output.weight                 | BF16   | [5120, 5120]\r\nlayers.3.feed_forward.w1.weight                  -> blk.3.ffn_gate.weight                    | BF16   | [13824, 5120]\r\nlayers.3.feed_forward.w2.weight                  -> blk.3.ffn_down.weight                    | BF16   | [5120, 13824]\r\nlayers.3.feed_forward.w3.weight                  -> blk.3.ffn_up.weight                      | BF16   | [13824, 5120]\r\nlayers.3.attention_norm.weight                   -> blk.3.attn_norm.weight                   | BF16   | [5120]\r\nlayers.3.ffn_norm.weight                         -> blk.3.ffn_norm.weight                    | BF16   | [5120]\r\nlayers.4.attention.wq.weight                     -> blk.4.attn_q.weight                      | BF16   | [5120, 5120]\r\nlayers.4.attention.wk.weight                     -> blk.4.attn_k.weight                      | BF16   | [5120, 5120]\r\nlayers.4.attention.wv.weight                     -> blk.4.attn_v.weight                      | BF16   | [5120, 5120]\r\nlayers.4.attention.wo.weight                     -> blk.4.attn_output.weight                 | BF16   | [5120, 5120]\r\nlayers.4.feed_forward.w1.weight                  -> blk.4.ffn_gate.weight                    | BF16   | [13824, 5120]\r\nlayers.4.feed_forward.w2.weight                  -> blk.4.ffn_down.weight                    | BF16   | [5120, 13824]\r\nlayers.4.feed_forward.w3.weight                  -> blk.4.ffn_up.weight                      | BF16   | [13824, 5120]\r\nlayers.4.attention_norm.weight                   -> blk.4.attn_norm.weight                   | BF16   | [5120]\r\nlayers.4.ffn_norm.weight                         -> blk.4.ffn_norm.weight                    | BF16   | [5120]\r\nlayers.5.attention.wq.weight                     -> blk.5.attn_q.weight                      | BF16   | [5120, 5120]\r\nlayers.5.attention.wk.weight                     -> blk.5.attn_k.weight                      | BF16   | [5120, 5120]\r\nlayers.5.attention.wv.weight                     -> blk.5.attn_v.weight                      | BF16   | [5120, 5120]\r\nlayers.5.attention.wo.weight                     -> blk.5.attn_output.weight                 | BF16   | [5120, 5120]\r\nlayers.5.feed_forward.w1.weight                  -> blk.5.ffn_gate.weight                    | BF16   | [13824, 5120]\r\nlayers.5.feed_forward.w2.weight                  -> blk.5.ffn_down.weight                    | BF16   | [5120, 13824]\r\nlayers.5.feed_forward.w3.weight                  -> blk.5.ffn_up.weight                      | BF16   | [13824, 5120]\r\nlayers.5.attention_norm.weight                   -> blk.5.attn_norm.weight                   | BF16   | [5120]\r\nlayers.5.ffn_norm.weight                         -> blk.5.ffn_norm.weight                    | BF16   | [5120]\r\nlayers.6.attention.wq.weight                     -> blk.6.attn_q.weight                      | BF16   | [5120, 5120]\r\nlayers.6.attention.wk.weight                     -> blk.6.attn_k.weight                      | BF16   | [5120, 5120]\r\nlayers.6.attention.wv.weight                     -> blk.6.attn_v.weight                      | BF16   | [5120, 5120]\r\nlayers.6.attention.wo.weight                     -> blk.6.attn_output.weight                 | BF16   | [5120, 5120]\r\nlayers.6.feed_forward.w1.weight                  -> blk.6.ffn_gate.weight                    | BF16   | [13824, 5120]\r\nlayers.6.feed_forward.w2.weight                  -> blk.6.ffn_down.weight                    | BF16   | [5120, 13824]\r\nlayers.6.feed_forward.w3.weight                  -> blk.6.ffn_up.weight                      | BF16   | [13824, 5120]\r\nlayers.6.attention_norm.weight                   -> blk.6.attn_norm.weight                   | BF16   | [5120]\r\nlayers.6.ffn_norm.weight                         -> blk.6.ffn_norm.weight                    | BF16   | [5120]\r\nlayers.7.attention.wq.weight                     -> blk.7.attn_q.weight                      | BF16   | [5120, 5120]\r\nlayers.7.attention.wk.weight                     -> blk.7.attn_k.weight                      | BF16   | [5120, 5120]\r\nlayers.7.attention.wv.weight                     -> blk.7.attn_v.weight                      | BF16   | [5120, 5120]\r\nlayers.7.attention.wo.weight                     -> blk.7.attn_output.weight                 | BF16   | [5120, 5120]\r\nlayers.7.feed_forward.w1.weight                  -> blk.7.ffn_gate.weight                    | BF16   | [13824, 5120]\r\nlayers.7.feed_forward.w2.weight                  -> blk.7.ffn_down.weight                    | BF16   | [5120, 13824]\r\nlayers.7.feed_forward.w3.weight                  -> blk.7.ffn_up.weight                      | BF16   | [13824, 5120]\r\nlayers.7.attention_norm.weight                   -> blk.7.attn_norm.weight                   | BF16   | [5120]\r\nlayers.7.ffn_norm.weight                         -> blk.7.ffn_norm.weight                    | BF16   | [5120]\r\nlayers.8.attention.wq.weight                     -> blk.8.attn_q.weight                      | BF16   | [5120, 5120]\r\nlayers.8.attention.wk.weight                     -> blk.8.attn_k.weight                      | BF16   | [5120, 5120]\r\nlayers.8.attention.wv.weight                     -> blk.8.attn_v.weight                      | BF16   | [5120, 5120]\r\nlayers.8.attention.wo.weight                     -> blk.8.attn_output.weight                 | BF16   | [5120, 5120]\r\nlayers.8.feed_forward.w1.weight                  -> blk.8.ffn_gate.weight                    | BF16   | [13824, 5120]\r\nlayers.8.feed_forward.w2.weight                  -> blk.8.ffn_down.weight                    | BF16   | [5120, 13824]\r\nlayers.8.feed_forward.w3.weight                  -> blk.8.ffn_up.weight                      | BF16   | [13824, 5120]\r\nlayers.8.attention_norm.weight                   -> blk.8.attn_norm.weight                   | BF16   | [5120]\r\nlayers.8.ffn_norm.weight                         -> blk.8.ffn_norm.weight                    | BF16   | [5120]\r\nlayers.9.attention.wq.weight                     -> blk.9.attn_q.weight                      | BF16   | [5120, 5120]\r\nlayers.9.attention.wk.weight                     -> blk.9.attn_k.weight                      | BF16   | [5120, 5120]\r\nlayers.9.attention.wv.weight                     -> blk.9.attn_v.weight                      | BF16   | [5120, 5120]\r\nlayers.9.attention.wo.weight                     -> blk.9.attn_output.weight                 | BF16   | [5120, 5120]\r\nlayers.9.feed_forward.w1.weight                  -> blk.9.ffn_gate.weight                    | BF16   | [13824, 5120]\r\nlayers.9.feed_forward.w2.weight                  -> blk.9.ffn_down.weight                    | BF16   | [5120, 13824]\r\nlayers.9.feed_forward.w3.weight                  -> blk.9.ffn_up.weight                      | BF16   | [13824, 5120]\r\nlayers.9.attention_norm.weight                   -> blk.9.attn_norm.weight                   | BF16   | [5120]\r\nlayers.9.ffn_norm.weight                         -> blk.9.ffn_norm.weight                    | BF16   | [5120]\r\nlayers.10.attention.wq.weight                    -> blk.10.attn_q.weight                     | BF16   | [5120, 5120]\r\nlayers.10.attention.wk.weight                    -> blk.10.attn_k.weight                     | BF16   | [5120, 5120]\r\nlayers.10.attention.wv.weight                    -> blk.10.attn_v.weight                     | BF16   | [5120, 5120]\r\nlayers.10.attention.wo.weight                    -> blk.10.attn_output.weight                | BF16   | [5120, 5120]\r\nlayers.10.feed_forward.w1.weight                 -> blk.10.ffn_gate.weight                   | BF16   | [13824, 5120]\r\nlayers.10.feed_forward.w2.weight                 -> blk.10.ffn_down.weight                   | BF16   | [5120, 13824]\r\nlayers.10.feed_forward.w3.weight                 -> blk.10.ffn_up.weight                     | BF16   | [13824, 5120]\r\nlayers.10.attention_norm.weight                  -> blk.10.attn_norm.weight                  | BF16   | [5120]\r\nlayers.10.ffn_norm.weight                        -> blk.10.ffn_norm.weight                   | BF16   | [5120]\r\nlayers.11.attention.wq.weight                    -> blk.11.attn_q.weight                     | BF16   | [5120, 5120]\r\nlayers.11.attention.wk.weight                    -> blk.11.attn_k.weight                     | BF16   | [5120, 5120]\r\nlayers.11.attention.wv.weight                    -> blk.11.attn_v.weight                     | BF16   | [5120, 5120]\r\nlayers.11.attention.wo.weight                    -> blk.11.attn_output.weight                | BF16   | [5120, 5120]\r\nlayers.11.feed_forward.w1.weight                 -> blk.11.ffn_gate.weight                   | BF16   | [13824, 5120]\r\nlayers.11.feed_forward.w2.weight                 -> blk.11.ffn_down.weight                   | BF16   | [5120, 13824]\r\nlayers.11.feed_forward.w3.weight                 -> blk.11.ffn_up.weight                     | BF16   | [13824, 5120]\r\nlayers.11.attention_norm.weight                  -> blk.11.attn_norm.weight                  | BF16   | [5120]\r\nlayers.11.ffn_norm.weight                        -> blk.11.ffn_norm.weight                   | BF16   | [5120]\r\nlayers.12.attention.wq.weight                    -> blk.12.attn_q.weight                     | BF16   | [5120, 5120]\r\nlayers.12.attention.wk.weight                    -> blk.12.attn_k.weight                     | BF16   | [5120, 5120]\r\nlayers.12.attention.wv.weight                    -> blk.12.attn_v.weight                     | BF16   | [5120, 5120]\r\nlayers.12.attention.wo.weight                    -> blk.12.attn_output.weight                | BF16   | [5120, 5120]\r\nlayers.12.feed_forward.w1.weight                 -> blk.12.ffn_gate.weight                   | BF16   | [13824, 5120]\r\nlayers.12.feed_forward.w2.weight                 -> blk.12.ffn_down.weight                   | BF16   | [5120, 13824]\r\nlayers.12.feed_forward.w3.weight                 -> blk.12.ffn_up.weight                     | BF16   | [13824, 5120]\r\nlayers.12.attention_norm.weight                  -> blk.12.attn_norm.weight                  | BF16   | [5120]\r\nlayers.12.ffn_norm.weight                        -> blk.12.ffn_norm.weight                   | BF16   | [5120]\r\nlayers.13.attention.wq.weight                    -> blk.13.attn_q.weight                     | BF16   | [5120, 5120]\r\nlayers.13.attention.wk.weight                    -> blk.13.attn_k.weight                     | BF16   | [5120, 5120]\r\nlayers.13.attention.wv.weight                    -> blk.13.attn_v.weight                     | BF16   | [5120, 5120]\r\nlayers.13.attention.wo.weight                    -> blk.13.attn_output.weight                | BF16   | [5120, 5120]\r\nlayers.13.feed_forward.w1.weight                 -> blk.13.ffn_gate.weight                   | BF16   | [13824, 5120]\r\nlayers.13.feed_forward.w2.weight                 -> blk.13.ffn_down.weight                   | BF16   | [5120, 13824]\r\nlayers.13.feed_forward.w3.weight                 -> blk.13.ffn_up.weight                     | BF16   | [13824, 5120]\r\nlayers.13.attention_norm.weight                  -> blk.13.attn_norm.weight                  | BF16   | [5120]\r\nlayers.13.ffn_norm.weight                        -> blk.13.ffn_norm.weight                   | BF16   | [5120]\r\nlayers.14.attention.wq.weight                    -> blk.14.attn_q.weight                     | BF16   | [5120, 5120]\r\nlayers.14.attention.wk.weight                    -> blk.14.attn_k.weight                     | BF16   | [5120, 5120]\r\nlayers.14.attention.wv.weight                    -> blk.14.attn_v.weight                     | BF16   | [5120, 5120]\r\nlayers.14.attention.wo.weight                    -> blk.14.attn_output.weight                | BF16   | [5120, 5120]\r\nlayers.14.feed_forward.w1.weight                 -> blk.14.ffn_gate.weight                   | BF16   | [13824, 5120]\r\nlayers.14.feed_forward.w2.weight                 -> blk.14.ffn_down.weight                   | BF16   | [5120, 13824]\r\nlayers.14.feed_forward.w3.weight                 -> blk.14.ffn_up.weight                     | BF16   | [13824, 5120]\r\nlayers.14.attention_norm.weight                  -> blk.14.attn_norm.weight                  | BF16   | [5120]\r\nlayers.14.ffn_norm.weight                        -> blk.14.ffn_norm.weight                   | BF16   | [5120]\r\nlayers.15.attention.wq.weight                    -> blk.15.attn_q.weight                     | BF16   | [5120, 5120]\r\nlayers.15.attention.wk.weight                    -> blk.15.attn_k.weight                     | BF16   | [5120, 5120]\r\nlayers.15.attention.wv.weight                    -> blk.15.attn_v.weight                     | BF16   | [5120, 5120]\r\nlayers.15.attention.wo.weight                    -> blk.15.attn_output.weight                | BF16   | [5120, 5120]\r\nlayers.15.feed_forward.w1.weight                 -> blk.15.ffn_gate.weight                   | BF16   | [13824, 5120]\r\nlayers.15.feed_forward.w2.weight                 -> blk.15.ffn_down.weight                   | BF16   | [5120, 13824]\r\nlayers.15.feed_forward.w3.weight                 -> blk.15.ffn_up.weight                     | BF16   | [13824, 5120]\r\nlayers.15.attention_norm.weight                  -> blk.15.attn_norm.weight                  | BF16   | [5120]\r\nlayers.15.ffn_norm.weight                        -> blk.15.ffn_norm.weight                   | BF16   | [5120]\r\nlayers.16.attention.wq.weight                    -> blk.16.attn_q.weight                     | BF16   | [5120, 5120]\r\nlayers.16.attention.wk.weight                    -> blk.16.attn_k.weight                     | BF16   | [5120, 5120]\r\nlayers.16.attention.wv.weight                    -> blk.16.attn_v.weight                     | BF16   | [5120, 5120]\r\nlayers.16.attention.wo.weight                    -> blk.16.attn_output.weight                | BF16   | [5120, 5120]\r\nlayers.16.feed_forward.w1.weight                 -> blk.16.ffn_gate.weight                   | BF16   | [13824, 5120]\r\nlayers.16.feed_forward.w2.weight                 -> blk.16.ffn_down.weight                   | BF16   | [5120, 13824]\r\nlayers.16.feed_forward.w3.weight                 -> blk.16.ffn_up.weight                     | BF16   | [13824, 5120]\r\nlayers.16.attention_norm.weight                  -> blk.16.attn_norm.weight                  | BF16   | [5120]\r\nlayers.16.ffn_norm.weight                        -> blk.16.ffn_norm.weight                   | BF16   | [5120]\r\nlayers.17.attention.wq.weight                    -> blk.17.attn_q.weight                     | BF16   | [5120, 5120]\r\nlayers.17.attention.wk.weight                    -> blk.17.attn_k.weight                     | BF16   | [5120, 5120]\r\nlayers.17.attention.wv.weight                    -> blk.17.attn_v.weight                     | BF16   | [5120, 5120]\r\nlayers.17.attention.wo.weight                    -> blk.17.attn_output.weight                | BF16   | [5120, 5120]\r\nlayers.17.feed_forward.w1.weight                 -> blk.17.ffn_gate.weight                   | BF16   | [13824, 5120]\r\nlayers.17.feed_forward.w2.weight                 -> blk.17.ffn_down.weight                   | BF16   | [5120, 13824]\r\nlayers.17.feed_forward.w3.weight                 -> blk.17.ffn_up.weight                     | BF16   | [13824, 5120]\r\nlayers.17.attention_norm.weight                  -> blk.17.attn_norm.weight                  | BF16   | [5120]\r\nlayers.17.ffn_norm.weight                        -> blk.17.ffn_norm.weight                   | BF16   | [5120]\r\nlayers.18.attention.wq.weight                    -> blk.18.attn_q.weight                     | BF16   | [5120, 5120]\r\nlayers.18.attention.wk.weight                    -> blk.18.attn_k.weight                     | BF16   | [5120, 5120]\r\nlayers.18.attention.wv.weight                    -> blk.18.attn_v.weight                     | BF16   | [5120, 5120]\r\nlayers.18.attention.wo.weight                    -> blk.18.attn_output.weight                | BF16   | [5120, 5120]\r\nlayers.18.feed_forward.w1.weight                 -> blk.18.ffn_gate.weight                   | BF16   | [13824, 5120]\r\nlayers.18.feed_forward.w2.weight                 -> blk.18.ffn_down.weight                   | BF16   | [5120, 13824]\r\nlayers.18.feed_forward.w3.weight                 -> blk.18.ffn_up.weight                     | BF16   | [13824, 5120]\r\nlayers.18.attention_norm.weight                  -> blk.18.attn_norm.weight                  | BF16   | [5120]\r\nlayers.18.ffn_norm.weight                        -> blk.18.ffn_norm.weight                   | BF16   | [5120]\r\nlayers.19.attention.wq.weight                    -> blk.19.attn_q.weight                     | BF16   | [5120, 5120]\r\nlayers.19.attention.wk.weight                    -> blk.19.attn_k.weight                     | BF16   | [5120, 5120]\r\nlayers.19.attention.wv.weight                    -> blk.19.attn_v.weight                     | BF16   | [5120, 5120]\r\nlayers.19.attention.wo.weight                    -> blk.19.attn_output.weight                | BF16   | [5120, 5120]\r\nlayers.19.feed_forward.w1.weight                 -> blk.19.ffn_gate.weight                   | BF16   | [13824, 5120]\r\nlayers.19.feed_forward.w2.weight                 -> blk.19.ffn_down.weight                   | BF16   | [5120, 13824]\r\nlayers.19.feed_forward.w3.weight                 -> blk.19.ffn_up.weight                     | BF16   | [13824, 5120]\r\nlayers.19.attention_norm.weight                  -> blk.19.attn_norm.weight                  | BF16   | [5120]\r\nlayers.19.ffn_norm.weight                        -> blk.19.ffn_norm.weight                   | BF16   | [5120]\r\nlayers.20.attention.wq.weight                    -> blk.20.attn_q.weight                     | BF16   | [5120, 5120]\r\nlayers.20.attention.wk.weight                    -> blk.20.attn_k.weight                     | BF16   | [5120, 5120]\r\nlayers.20.attention.wv.weight                    -> blk.20.attn_v.weight                     | BF16   | [5120, 5120]\r\nlayers.20.attention.wo.weight                    -> blk.20.attn_output.weight                | BF16   | [5120, 5120]\r\nlayers.20.feed_forward.w1.weight                 -> blk.20.ffn_gate.weight                   | BF16   | [13824, 5120]\r\nlayers.20.feed_forward.w2.weight                 -> blk.20.ffn_down.weight                   | BF16   | [5120, 13824]\r\nlayers.20.feed_forward.w3.weight                 -> blk.20.ffn_up.weight                     | BF16   | [13824, 5120]\r\nlayers.20.attention_norm.weight                  -> blk.20.attn_norm.weight                  | BF16   | [5120]\r\nlayers.20.ffn_norm.weight                        -> blk.20.ffn_norm.weight                   | BF16   | [5120]\r\nlayers.21.attention.wq.weight                    -> blk.21.attn_q.weight                     | BF16   | [5120, 5120]\r\nlayers.21.attention.wk.weight                    -> blk.21.attn_k.weight                     | BF16   | [5120, 5120]\r\nlayers.21.attention.wv.weight                    -> blk.21.attn_v.weight                     | BF16   | [5120, 5120]\r\nlayers.21.attention.wo.weight                    -> blk.21.attn_output.weight                | BF16   | [5120, 5120]\r\nlayers.21.feed_forward.w1.weight                 -> blk.21.ffn_gate.weight                   | BF16   | [13824, 5120]\r\nlayers.21.feed_forward.w2.weight                 -> blk.21.ffn_down.weight                   | BF16   | [5120, 13824]\r\nlayers.21.feed_forward.w3.weight                 -> blk.21.ffn_up.weight                     | BF16   | [13824, 5120]\r\nlayers.21.attention_norm.weight                  -> blk.21.attn_norm.weight                  | BF16   | [5120]\r\nlayers.21.ffn_norm.weight                        -> blk.21.ffn_norm.weight                   | BF16   | [5120]\r\nlayers.22.attention.wq.weight                    -> blk.22.attn_q.weight                     | BF16   | [5120, 5120]\r\nlayers.22.attention.wk.weight                    -> blk.22.attn_k.weight                     | BF16   | [5120, 5120]\r\nlayers.22.attention.wv.weight                    -> blk.22.attn_v.weight                     | BF16   | [5120, 5120]\r\nlayers.22.attention.wo.weight                    -> blk.22.attn_output.weight                | BF16   | [5120, 5120]\r\nlayers.22.feed_forward.w1.weight                 -> blk.22.ffn_gate.weight                   | BF16   | [13824, 5120]\r\nlayers.22.feed_forward.w2.weight                 -> blk.22.ffn_down.weight                   | BF16   | [5120, 13824]\r\nlayers.22.feed_forward.w3.weight                 -> blk.22.ffn_up.weight                     | BF16   | [13824, 5120]\r\nlayers.22.attention_norm.weight                  -> blk.22.attn_norm.weight                  | BF16   | [5120]\r\nlayers.22.ffn_norm.weight                        -> blk.22.ffn_norm.weight                   | BF16   | [5120]\r\nlayers.23.attention.wq.weight                    -> blk.23.attn_q.weight                     | BF16   | [5120, 5120]\r\nlayers.23.attention.wk.weight                    -> blk.23.attn_k.weight                     | BF16   | [5120, 5120]\r\nlayers.23.attention.wv.weight                    -> blk.23.attn_v.weight                     | BF16   | [5120, 5120]\r\nlayers.23.attention.wo.weight                    -> blk.23.attn_output.weight                | BF16   | [5120, 5120]\r\nlayers.23.feed_forward.w1.weight                 -> blk.23.ffn_gate.weight                   | BF16   | [13824, 5120]\r\nlayers.23.feed_forward.w2.weight                 -> blk.23.ffn_down.weight                   | BF16   | [5120, 13824]\r\nlayers.23.feed_forward.w3.weight                 -> blk.23.ffn_up.weight                     | BF16   | [13824, 5120]\r\nlayers.23.attention_norm.weight                  -> blk.23.attn_norm.weight                  | BF16   | [5120]\r\nlayers.23.ffn_norm.weight                        -> blk.23.ffn_norm.weight                   | BF16   | [5120]\r\nlayers.24.attention.wq.weight                    -> blk.24.attn_q.weight                     | BF16   | [5120, 5120]\r\nlayers.24.attention.wk.weight                    -> blk.24.attn_k.weight                     | BF16   | [5120, 5120]\r\nlayers.24.attention.wv.weight                    -> blk.24.attn_v.weight                     | BF16   | [5120, 5120]\r\nlayers.24.attention.wo.weight                    -> blk.24.attn_output.weight                | BF16   | [5120, 5120]\r\nlayers.24.feed_forward.w1.weight                 -> blk.24.ffn_gate.weight                   | BF16   | [13824, 5120]\r\nlayers.24.feed_forward.w2.weight                 -> blk.24.ffn_down.weight                   | BF16   | [5120, 13824]\r\nlayers.24.feed_forward.w3.weight                 -> blk.24.ffn_up.weight                     | BF16   | [13824, 5120]\r\nlayers.24.attention_norm.weight                  -> blk.24.attn_norm.weight                  | BF16   | [5120]\r\nlayers.24.ffn_norm.weight                        -> blk.24.ffn_norm.weight                   | BF16   | [5120]\r\nlayers.25.attention.wq.weight                    -> blk.25.attn_q.weight                     | BF16   | [5120, 5120]\r\nlayers.25.attention.wk.weight                    -> blk.25.attn_k.weight                     | BF16   | [5120, 5120]\r\nlayers.25.attention.wv.weight                    -> blk.25.attn_v.weight                     | BF16   | [5120, 5120]\r\nlayers.25.attention.wo.weight                    -> blk.25.attn_output.weight                | BF16   | [5120, 5120]\r\nlayers.25.feed_forward.w1.weight                 -> blk.25.ffn_gate.weight                   | BF16   | [13824, 5120]\r\nlayers.25.feed_forward.w2.weight                 -> blk.25.ffn_down.weight                   | BF16   | [5120, 13824]\r\nlayers.25.feed_forward.w3.weight                 -> blk.25.ffn_up.weight                     | BF16   | [13824, 5120]\r\nlayers.25.attention_norm.weight                  -> blk.25.attn_norm.weight                  | BF16   | [5120]\r\nlayers.25.ffn_norm.weight                        -> blk.25.ffn_norm.weight                   | BF16   | [5120]\r\nlayers.26.attention.wq.weight                    -> blk.26.attn_q.weight                     | BF16   | [5120, 5120]\r\nlayers.26.attention.wk.weight                    -> blk.26.attn_k.weight                     | BF16   | [5120, 5120]\r\nlayers.26.attention.wv.weight                    -> blk.26.attn_v.weight                     | BF16   | [5120, 5120]\r\nlayers.26.attention.wo.weight                    -> blk.26.attn_output.weight                | BF16   | [5120, 5120]\r\nlayers.26.feed_forward.w1.weight                 -> blk.26.ffn_gate.weight                   | BF16   | [13824, 5120]\r\nlayers.26.feed_forward.w2.weight                 -> blk.26.ffn_down.weight                   | BF16   | [5120, 13824]\r\nlayers.26.feed_forward.w3.weight                 -> blk.26.ffn_up.weight                     | BF16   | [13824, 5120]\r\nlayers.26.attention_norm.weight                  -> blk.26.attn_norm.weight                  | BF16   | [5120]\r\nlayers.26.ffn_norm.weight                        -> blk.26.ffn_norm.weight                   | BF16   | [5120]\r\nlayers.27.attention.wq.weight                    -> blk.27.attn_q.weight                     | BF16   | [5120, 5120]\r\nlayers.27.attention.wk.weight                    -> blk.27.attn_k.weight                     | BF16   | [5120, 5120]\r\nlayers.27.attention.wv.weight                    -> blk.27.attn_v.weight                     | BF16   | [5120, 5120]\r\nlayers.27.attention.wo.weight                    -> blk.27.attn_output.weight                | BF16   | [5120, 5120]\r\nlayers.27.feed_forward.w1.weight                 -> blk.27.ffn_gate.weight                   | BF16   | [13824, 5120]\r\nlayers.27.feed_forward.w2.weight                 -> blk.27.ffn_down.weight                   | BF16   | [5120, 13824]\r\nlayers.27.feed_forward.w3.weight                 -> blk.27.ffn_up.weight                     | BF16   | [13824, 5120]\r\nlayers.27.attention_norm.weight                  -> blk.27.attn_norm.weight                  | BF16   | [5120]\r\nlayers.27.ffn_norm.weight                        -> blk.27.ffn_norm.weight                   | BF16   | [5120]\r\nlayers.28.attention.wq.weight                    -> blk.28.attn_q.weight                     | BF16   | [5120, 5120]\r\nlayers.28.attention.wk.weight                    -> blk.28.attn_k.weight                     | BF16   | [5120, 5120]\r\nlayers.28.attention.wv.weight                    -> blk.28.attn_v.weight                     | BF16   | [5120, 5120]\r\nlayers.28.attention.wo.weight                    -> blk.28.attn_output.weight                | BF16   | [5120, 5120]\r\nlayers.28.feed_forward.w1.weight                 -> blk.28.ffn_gate.weight                   | BF16   | [13824, 5120]\r\nlayers.28.feed_forward.w2.weight                 -> blk.28.ffn_down.weight                   | BF16   | [5120, 13824]\r\nlayers.28.feed_forward.w3.weight                 -> blk.28.ffn_up.weight                     | BF16   | [13824, 5120]\r\nlayers.28.attention_norm.weight                  -> blk.28.attn_norm.weight                  | BF16   | [5120]\r\nlayers.28.ffn_norm.weight                        -> blk.28.ffn_norm.weight                   | BF16   | [5120]\r\nlayers.29.attention.wq.weight                    -> blk.29.attn_q.weight                     | BF16   | [5120, 5120]\r\nlayers.29.attention.wk.weight                    -> blk.29.attn_k.weight                     | BF16   | [5120, 5120]\r\nlayers.29.attention.wv.weight                    -> blk.29.attn_v.weight                     | BF16   | [5120, 5120]\r\nlayers.29.attention.wo.weight                    -> blk.29.attn_output.weight                | BF16   | [5120, 5120]\r\nlayers.29.feed_forward.w1.weight                 -> blk.29.ffn_gate.weight                   | BF16   | [13824, 5120]\r\nlayers.29.feed_forward.w2.weight                 -> blk.29.ffn_down.weight                   | BF16   | [5120, 13824]\r\nlayers.29.feed_forward.w3.weight                 -> blk.29.ffn_up.weight                     | BF16   | [13824, 5120]\r\nlayers.29.attention_norm.weight                  -> blk.29.attn_norm.weight                  | BF16   | [5120]\r\nlayers.29.ffn_norm.weight                        -> blk.29.ffn_norm.weight                   | BF16   | [5120]\r\nlayers.30.attention.wq.weight                    -> blk.30.attn_q.weight                     | BF16   | [5120, 5120]\r\nlayers.30.attention.wk.weight                    -> blk.30.attn_k.weight                     | BF16   | [5120, 5120]\r\nlayers.30.attention.wv.weight                    -> blk.30.attn_v.weight                     | BF16   | [5120, 5120]\r\nlayers.30.attention.wo.weight                    -> blk.30.attn_output.weight                | BF16   | [5120, 5120]\r\nlayers.30.feed_forward.w1.weight                 -> blk.30.ffn_gate.weight                   | BF16   | [13824, 5120]\r\nlayers.30.feed_forward.w2.weight                 -> blk.30.ffn_down.weight                   | BF16   | [5120, 13824]\r\nlayers.30.feed_forward.w3.weight                 -> blk.30.ffn_up.weight                     | BF16   | [13824, 5120]\r\nlayers.30.attention_norm.weight                  -> blk.30.attn_norm.weight                  | BF16   | [5120]\r\nlayers.30.ffn_norm.weight                        -> blk.30.ffn_norm.weight                   | BF16   | [5120]\r\nlayers.31.attention.wq.weight                    -> blk.31.attn_q.weight                     | BF16   | [5120, 5120]\r\nlayers.31.attention.wk.weight                    -> blk.31.attn_k.weight                     | BF16   | [5120, 5120]\r\nlayers.31.attention.wv.weight                    -> blk.31.attn_v.weight                     | BF16   | [5120, 5120]\r\nlayers.31.attention.wo.weight                    -> blk.31.attn_output.weight                | BF16   | [5120, 5120]\r\nlayers.31.feed_forward.w1.weight                 -> blk.31.ffn_gate.weight                   | BF16   | [13824, 5120]\r\nlayers.31.feed_forward.w2.weight                 -> blk.31.ffn_down.weight                   | BF16   | [5120, 13824]\r\nlayers.31.feed_forward.w3.weight                 -> blk.31.ffn_up.weight                     | BF16   | [13824, 5120]\r\nlayers.31.attention_norm.weight                  -> blk.31.attn_norm.weight                  | BF16   | [5120]\r\nlayers.31.ffn_norm.weight                        -> blk.31.ffn_norm.weight                   | BF16   | [5120]\r\nlayers.32.attention.wq.weight                    -> blk.32.attn_q.weight                     | BF16   | [5120, 5120]\r\nlayers.32.attention.wk.weight                    -> blk.32.attn_k.weight                     | BF16   | [5120, 5120]\r\nlayers.32.attention.wv.weight                    -> blk.32.attn_v.weight                     | BF16   | [5120, 5120]\r\nlayers.32.attention.wo.weight                    -> blk.32.attn_output.weight                | BF16   | [5120, 5120]\r\nlayers.32.feed_forward.w1.weight                 -> blk.32.ffn_gate.weight                   | BF16   | [13824, 5120]\r\nlayers.32.feed_forward.w2.weight                 -> blk.32.ffn_down.weight                   | BF16   | [5120, 13824]\r\nlayers.32.feed_forward.w3.weight                 -> blk.32.ffn_up.weight                     | BF16   | [13824, 5120]\r\nlayers.32.attention_norm.weight                  -> blk.32.attn_norm.weight                  | BF16   | [5120]\r\nlayers.32.ffn_norm.weight                        -> blk.32.ffn_norm.weight                   | BF16   | [5120]\r\nlayers.33.attention.wq.weight                    -> blk.33.attn_q.weight                     | BF16   | [5120, 5120]\r\nlayers.33.attention.wk.weight                    -> blk.33.attn_k.weight                     | BF16   | [5120, 5120]\r\nlayers.33.attention.wv.weight                    -> blk.33.attn_v.weight                     | BF16   | [5120, 5120]\r\nlayers.33.attention.wo.weight                    -> blk.33.attn_output.weight                | BF16   | [5120, 5120]\r\nlayers.33.feed_forward.w1.weight                 -> blk.33.ffn_gate.weight                   | BF16   | [13824, 5120]\r\nlayers.33.feed_forward.w2.weight                 -> blk.33.ffn_down.weight                   | BF16   | [5120, 13824]\r\nlayers.33.feed_forward.w3.weight                 -> blk.33.ffn_up.weight                     | BF16   | [13824, 5120]\r\nlayers.33.attention_norm.weight                  -> blk.33.attn_norm.weight                  | BF16   | [5120]\r\nlayers.33.ffn_norm.weight                        -> blk.33.ffn_norm.weight                   | BF16   | [5120]\r\nlayers.34.attention.wq.weight                    -> blk.34.attn_q.weight                     | BF16   | [5120, 5120]\r\nlayers.34.attention.wk.weight                    -> blk.34.attn_k.weight                     | BF16   | [5120, 5120]\r\nlayers.34.attention.wv.weight                    -> blk.34.attn_v.weight                     | BF16   | [5120, 5120]\r\nlayers.34.attention.wo.weight                    -> blk.34.attn_output.weight                | BF16   | [5120, 5120]\r\nlayers.34.feed_forward.w1.weight                 -> blk.34.ffn_gate.weight                   | BF16   | [13824, 5120]\r\nlayers.34.feed_forward.w2.weight                 -> blk.34.ffn_down.weight                   | BF16   | [5120, 13824]\r\nlayers.34.feed_forward.w3.weight                 -> blk.34.ffn_up.weight                     | BF16   | [13824, 5120]\r\nlayers.34.attention_norm.weight                  -> blk.34.attn_norm.weight                  | BF16   | [5120]\r\nlayers.34.ffn_norm.weight                        -> blk.34.ffn_norm.weight                   | BF16   | [5120]\r\nlayers.35.attention.wq.weight                    -> blk.35.attn_q.weight                     | BF16   | [5120, 5120]\r\nlayers.35.attention.wk.weight                    -> blk.35.attn_k.weight                     | BF16   | [5120, 5120]\r\nlayers.35.attention.wv.weight                    -> blk.35.attn_v.weight                     | BF16   | [5120, 5120]\r\nlayers.35.attention.wo.weight                    -> blk.35.attn_output.weight                | BF16   | [5120, 5120]\r\nlayers.35.feed_forward.w1.weight                 -> blk.35.ffn_gate.weight                   | BF16   | [13824, 5120]\r\nlayers.35.feed_forward.w2.weight                 -> blk.35.ffn_down.weight                   | BF16   | [5120, 13824]\r\nlayers.35.feed_forward.w3.weight                 -> blk.35.ffn_up.weight                     | BF16   | [13824, 5120]\r\nlayers.35.attention_norm.weight                  -> blk.35.attn_norm.weight                  | BF16   | [5120]\r\nlayers.35.ffn_norm.weight                        -> blk.35.ffn_norm.weight                   | BF16   | [5120]\r\nlayers.36.attention.wq.weight                    -> blk.36.attn_q.weight                     | BF16   | [5120, 5120]\r\nlayers.36.attention.wk.weight                    -> blk.36.attn_k.weight                     | BF16   | [5120, 5120]\r\nlayers.36.attention.wv.weight                    -> blk.36.attn_v.weight                     | BF16   | [5120, 5120]\r\nlayers.36.attention.wo.weight                    -> blk.36.attn_output.weight                | BF16   | [5120, 5120]\r\nlayers.36.feed_forward.w1.weight                 -> blk.36.ffn_gate.weight                   | BF16   | [13824, 5120]\r\nlayers.36.feed_forward.w2.weight                 -> blk.36.ffn_down.weight                   | BF16   | [5120, 13824]\r\nlayers.36.feed_forward.w3.weight                 -> blk.36.ffn_up.weight                     | BF16   | [13824, 5120]\r\nlayers.36.attention_norm.weight                  -> blk.36.attn_norm.weight                  | BF16   | [5120]\r\nlayers.36.ffn_norm.weight                        -> blk.36.ffn_norm.weight                   | BF16   | [5120]\r\nlayers.37.attention.wq.weight                    -> blk.37.attn_q.weight                     | BF16   | [5120, 5120]\r\nlayers.37.attention.wk.weight                    -> blk.37.attn_k.weight                     | BF16   | [5120, 5120]\r\nlayers.37.attention.wv.weight                    -> blk.37.attn_v.weight                     | BF16   | [5120, 5120]\r\nlayers.37.attention.wo.weight                    -> blk.37.attn_output.weight                | BF16   | [5120, 5120]\r\nlayers.37.feed_forward.w1.weight                 -> blk.37.ffn_gate.weight                   | BF16   | [13824, 5120]\r\nlayers.37.feed_forward.w2.weight                 -> blk.37.ffn_down.weight                   | BF16   | [5120, 13824]\r\nlayers.37.feed_forward.w3.weight                 -> blk.37.ffn_up.weight                     | BF16   | [13824, 5120]\r\nlayers.37.attention_norm.weight                  -> blk.37.attn_norm.weight                  | BF16   | [5120]\r\nlayers.37.ffn_norm.weight                        -> blk.37.ffn_norm.weight                   | BF16   | [5120]\r\nlayers.38.attention.wq.weight                    -> blk.38.attn_q.weight                     | BF16   | [5120, 5120]\r\nlayers.38.attention.wk.weight                    -> blk.38.attn_k.weight                     | BF16   | [5120, 5120]\r\nlayers.38.attention.wv.weight                    -> blk.38.attn_v.weight                     | BF16   | [5120, 5120]\r\nlayers.38.attention.wo.weight                    -> blk.38.attn_output.weight                | BF16   | [5120, 5120]\r\nlayers.38.feed_forward.w1.weight                 -> blk.38.ffn_gate.weight                   | BF16   | [13824, 5120]\r\nlayers.38.feed_forward.w2.weight                 -> blk.38.ffn_down.weight                   | BF16   | [5120, 13824]\r\nlayers.38.feed_forward.w3.weight                 -> blk.38.ffn_up.weight                     | BF16   | [13824, 5120]\r\nlayers.38.attention_norm.weight                  -> blk.38.attn_norm.weight                  | BF16   | [5120]\r\nlayers.38.ffn_norm.weight                        -> blk.38.ffn_norm.weight                   | BF16   | [5120]\r\nlayers.39.attention.wq.weight                    -> blk.39.attn_q.weight                     | BF16   | [5120, 5120]\r\nlayers.39.attention.wk.weight                    -> blk.39.attn_k.weight                     | BF16   | [5120, 5120]\r\nlayers.39.attention.wv.weight                    -> blk.39.attn_v.weight                     | BF16   | [5120, 5120]\r\nlayers.39.attention.wo.weight                    -> blk.39.attn_output.weight                | BF16   | [5120, 5120]\r\nlayers.39.feed_forward.w1.weight                 -> blk.39.ffn_gate.weight                   | BF16   | [13824, 5120]\r\nlayers.39.feed_forward.w2.weight                 -> blk.39.ffn_down.weight                   | BF16   | [5120, 13824]\r\nlayers.39.feed_forward.w3.weight                 -> blk.39.ffn_up.weight                     | BF16   | [13824, 5120]\r\nlayers.39.attention_norm.weight                  -> blk.39.attn_norm.weight                  | BF16   | [5120]\r\nlayers.39.ffn_norm.weight                        -> blk.39.ffn_norm.weight                   | BF16   | [5120]\r\nskipping tensor rope_freqs\r\nWriting models/13B/ggml-model-f16.gguf, format 1\r\nTraceback (most recent call last):\r\n  File \"/home/bzhou/Repos/llama.cpp/convert.py\", line 1228, in <module>\r\n    main()\r\n  File \"/home/bzhou/Repos/llama.cpp/convert.py\", line 1223, in main\r\n    OutputFile.write_all(outfile, ftype, params, model, vocab, special_vocab, concurrency = args.concurren
…
