…
NG     |        1 | tokenizer.ggml.pre = 'llama-bpe'\r\n     19: [STRING]   |   128256 | tokenizer.ggml.tokens\r\n     20: [INT32]    |   128256 | tokenizer.ggml.token_type\r\n     21: [STRING]   |   280147 | tokenizer.ggml.merges\r\n     22: UINT32     |        1 | tokenizer.ggml.bos_token_id = 128000\r\n     23: UINT32     |        1 | tokenizer.ggml.eos_token_id = 128001\r\n     24: STRING     |        1 | tokenizer.chat_template = '{% set loop_messages = messages %}{% for message in loop_mes'\r\nllama_cpp-1  |\r\n* Dumping 323 tensor(s)\r\n      1:  525336576 |  4096, 128256,     1,     1 | F16     | token_embd.weight\r\n      2:       4096 |  4096,     1,     1,     1 | F32     | blk.0.attn_norm.weight\r\n      3:   58720256 | 14336,  4096,     1,     1 | F16     | blk.0.ffn_down.weight\r\n      4:   58720256 |  4096, 14336,     1,     1 | F16     | blk.0.ffn_gate.weight\r\n      5:   58720256 |  4096, 14336,     1,     1 | F16     | blk.0.ffn_up.weight\r\n      6:       4096 |  4096,     1,     1,     1 | F32     | blk.0.ffn_norm.weight\r\n      7:    4194304 |  4096,  1024,     1,     1 | F16     | blk.0.attn_k.weight\r\n      8:   16777216 |  4096,  4096,     1,     1 | F16     | blk.0.attn_output.weight\r\n      9:   16777216 |  4096,  4096,     1,     1 | F16     | blk.0.attn_q.weight\r\n     10:         64 |    64,     1,     1,     1 | F32     | blk.0.attn_rot_embd\r\n     11:    4194304 |  4096,  1024,     1,     1 | F16     | blk.0.attn_v.weight\r\n     12:       4096 |  4096,     1,     1,     1 | F32     | blk.1.attn_norm.weight\r\n     13:   58720256 | 14336,  4096,     1,     1 | F16     | blk.1.ffn_down.weight\r\n     14:   58720256 |  4096, 14336,     1,     1 | F16     | blk.1.ffn_gate.weight\r\n     15:   58720256 |  4096, 14336,     1,     1 | F16     | blk.1.ffn_up.weight\r\n     16:       4096 |  4096,     1,     1,     1 | F32     | blk.1.ffn_norm.weight\r\n     17:    4194304 |  4096,  1024,     1,     1 | F16     | blk.1.attn_k.weight\r\n     18:   16777216 |  4096,  4096,     1,     1 | F16     | blk.1.attn_output.weight\r\n     19:   16777216 |  4096,  4096,     1,     1 | F16     | blk.1.attn_q.weight\r\n     20:         64 |    64,     1,     1,     1 | F32     | blk.1.attn_rot_embd\r\n     21:    4194304 |  4096,  1024,     1,     1 | F16     | blk.1.attn_v.weight\r\n     22:       4096 |  4096,     1,     1,     1 | F32     | blk.10.attn_norm.weight\r\n     23:   58720256 | 14336,  4096,     1,     1 | F16     | blk.10.ffn_down.weight\r\n     24:   58720256 |  4096, 14336,     1,     1 | F16     | blk.10.ffn_gate.weight\r\n     25:   58720256 |  4096, 14336,     1,     1 | F16     | blk.10.ffn_up.weight\r\n     26:       4096 |  4096,     1,     1,     1 | F32     | blk.10.ffn_norm.weight\r\n     27:    4194304 |  4096,  1024,     1,     1 | F16     | blk.10.attn_k.weight\r\n     28:   16777216 |  4096,  4096,     1,     1 | F16     | blk.10.attn_output.weight\r\n     29:   16777216 |  4096,  4096,     1,     1 | F16     | blk.10.attn_q.weight\r\n     30:         64 |    64,     1,     1,     1 | F32     | blk.10.attn_rot_embd\r\n     31:    4194304 |  4096,  1024,     1,     1 | F16     | blk.10.attn_v.weight\r\n     32:       4096 |  4096,     1,     1,     1 | F32     | blk.11.attn_norm.weight\r\n     33:   58720256 | 14336,  4096,     1,     1 | F16     | blk.11.ffn_down.weight\r\n     34:   58720256 |  4096, 14336,     1,     1 | F16     | blk.11.ffn_gate.weight\r\n     35:   58720256 |  4096, 14336,     1,     1 | F16     | blk.11.ffn_up.weight\r\n     36:       4096 |  4096,     1,     1,     1 | F32     | blk.11.ffn_norm.weight\r\n     37:    4194304 |  4096,  1024,     1,     1 | F16     | blk.11.attn_k.weight\r\n     38:   16777216 |  4096,  4096,     1,     1 | F16     | blk.11.attn_output.weight\r\n     39:   16777216 |  4096,  4096,     1,     1 | F16     | blk.11.attn_q.weight\r\n     40:         64 |    64,     1,     1,     1 | F32     | blk.11.attn_rot_embd\r\n     41:    4194304 |  4096,  1024,     1,     1 | F16     | blk.11.attn_v.weight\r\n     42:       4096 |  4096,     1,     1,     1 | F32     | blk.12.attn_norm.weight\r\n     43:   58720256 | 14336,  4096,     1,     1 | F16     | blk.12.ffn_down.weight\r\n     44:   58720256 |  4096, 14336,     1,     1 | F16     | blk.12.ffn_gate.weight\r\n     45:   58720256 |  4096, 14336,     1,     1 | F16     | blk.12.ffn_up.weight\r\n     46:       4096 |  4096,     1,     1,     1 | F32     | blk.12.ffn_norm.weight\r\n     47:    4194304 |  4096,  1024,     1,     1 | F16     | blk.12.attn_k.weight\r\n     48:   16777216 |  4096,  4096,     1,     1 | F16     | blk.12.attn_output.weight\r\n     49:   16777216 |  4096,  4096,     1,     1 | F16     | blk.12.attn_q.weight\r\n     50:         64 |    64,     1,     1,     1 | F32     | blk.12.attn_rot_embd\r\n     51:    4194304 |  4096,  1024,     1,     1 | F16     | blk.12.attn_v.weight\r\n     52:       4096 |  4096,     1,     1,     1 | F32     | blk.13.attn_norm.weight\r\n     53:   58720256 | 14336,  4096,     1,     1 | F16     | blk.13.ffn_down.weight\r\n     54:   58720256 |  4096, 14336,     1,     1 | F16     | blk.13.ffn_gate.weight\r\n     55:   58720256 |  4096, 14336,     1,     1 | F16     | blk.13.ffn_up.weight\r\n     56:       4096 |  4096,     1,     1,     1 | F32     | blk.13.ffn_norm.weight\r\n     57:    4194304 |  4096,  1024,     1,     1 | F16     | blk.13.attn_k.weight\r\n     58:   16777216 |  4096,  4096,     1,     1 | F16     | blk.13.attn_output.weight\r\n     59:   16777216 |  4096,  4096,     1,     1 | F16     | blk.13.attn_q.weight\r\n     60:         64 |    64,     1,     1,     1 | F32     | blk.13.attn_rot_embd\r\n     61:    4194304 |  4096,  1024,     1,     1 | F16     | blk.13.attn_v.weight\r\n     62:       4096 |  4096,     1,     1,     1 | F32     | blk.14.attn_norm.weight\r\n     63:   58720256 | 14336,  4096,     1,     1 | F16     | blk.14.ffn_down.weight\r\n     64:   58720256 |  4096, 14336,     1,     1 | F16     | blk.14.ffn_gate.weight\r\n     65:   58720256 |  4096, 14336,     1,     1 | F16     | blk.14.ffn_up.weight\r\n     66:       4096 |  4096,     1,     1,     1 | F32     | blk.14.ffn_norm.weight\r\n     67:    4194304 |  4096,  1024,     1,     1 | F16     | blk.14.attn_k.weight\r\n     68:   16777216 |  4096,  4096,     1,     1 | F16     | blk.14.attn_output.weight\r\n     69:   16777216 |  4096,  4096,     1,     1 | F16     | blk.14.attn_q.weight\r\n     70:         64 |    64,     1,     1,     1 | F32     | blk.14.attn_rot_embd\r\n     71:    4194304 |  4096,  1024,     1,     1 | F16     | blk.14.attn_v.weight\r\n     72:       4096 |  4096,     1,     1,     1 | F32     | blk.15.attn_norm.weight\r\n     73:   58720256 | 14336,  4096,     1,     1 | F16     | blk.15.ffn_down.weight\r\n     74:   58720256 |  4096, 14336,     1,     1 | F16     | blk.15.ffn_gate.weight\r\n     75:   58720256 |  4096, 14336,     1,     1 | F16     | blk.15.ffn_up.weight\r\n     76:       4096 |  4096,     1,     1,     1 | F32     | blk.15.ffn_norm.weight\r\n     77:    4194304 |  4096,  1024,     1,     1 | F16     | blk.15.attn_k.weight\r\n     78:   16777216 |  4096,  4096,     1,     1 | F16     | blk.15.attn_output.weight\r\n     79:   16777216 |  4096,  4096,     1,     1 | F16     | blk.15.attn_q.weight\r\n     80:         64 |    64,     1,     1,     1 | F32     | blk.15.attn_rot_embd\r\n     81:    4194304 |  4096,  1024,     1,     1 | F16     | blk.15.attn_v.weight\r\n     82:       4096 |  4096,     1,     1,     1 | F32     | blk.16.attn_norm.weight\r\n     83:   58720256 | 14336,  4096,     1,     1 | F16     | blk.16.ffn_down.weight\r\n     84:   58720256 |  4096, 14336,     1,     1 | F16     | blk.16.ffn_gate.weight\r\n     85:   58720256 |  4096, 14336,     1,     1 | F16     | blk.16.ffn_up.weight\r\n     86:       4096 |  4096,     1,     1,     1 | F32     | blk.16.ffn_norm.weight\r\n     87:    4194304 |  4096,  1024,     1,     1 | F16     | blk.16.attn_k.weight\r\n     88:   16777216 |  4096,  4096,     1,     1 | F16     | blk.16.attn_output.weight\r\n     89:   16777216 |  4096,  4096,     1,     1 | F16     | blk.16.attn_q.weight\r\n     90:         64 |    64,     1,     1,     1 | F32     | blk.16.attn_rot_embd\r\n     91:    4194304 |  4096,  1024,     1,     1 | F16     | blk.16.attn_v.weight\r\n     92:       4096 |  4096,     1,     1,     1 | F32     | blk.17.attn_norm.weight\r\n     93:   58720256 | 14336,  4096,     1,     1 | F16     | blk.17.ffn_down.weight\r\n     94:   58720256 |  4096, 14336,     1,     1 | F16     | blk.17.ffn_gate.weight\r\n     95:   58720256 |  4096, 14336,     1,     1 | F16     | blk.17.ffn_up.weight\r\n     96:       4096 |  4096,     1,     1,     1 | F32     | blk.17.ffn_norm.weight\r\n     97:    4194304 |  4096,  1024,     1,     1 | F16     | blk.17.attn_k.weight\r\n     98:   16777216 |  4096,  4096,     1,     1 | F16     | blk.17.attn_output.weight\r\n     99:   16777216 |  4096,  4096,     1,     1 | F16     | blk.17.attn_q.weight\r\n    100:         64 |    64,     1,     1,     1 | F32     | blk.17.attn_rot_embd\r\n    101:    4194304 |  4096,  1024,     1,     1 | F16     | blk.17.attn_v.weight\r\n    102:       4096 |  4096,     1,     1,     1 | F32     | blk.18.attn_norm.weight\r\n    103:   58720256 | 14336,  4096,     1,     1 | F16     | blk.18.ffn_down.weight\r\n    104:   58720256 |  4096, 14336,     1,     1 | F16     | blk.18.ffn_gate.weight\r\n    105:   58720256 |  4096, 14336,     1,     1 | F16     | blk.18.ffn_up.weight\r\n    106:       4096 |  4096,     1,     1,     1 | F32     | blk.18.ffn_norm.weight\r\n    107:    4194304 |  4096,  1024,     1,     1 | F16     | blk.18.attn_k.weight\r\n    108:   16777216 |  4096,  4096,     1,     1 | F16     | blk.18.attn_output.weight\r\n    109:   16777216 |  4096,  4096,     1,     1 | F16     | blk.18.attn_q.weight\r\n    110:         64 |    64,     1,     1,     1 | F32     | blk.18.attn_rot_embd\r\n    111:    4194304 |  4096,  1024,     1,     1 | F16     | blk.18.attn_v.weight\r\n    112:       4096 |  4096,     1,     1,     1 | F32     | blk.19.attn_norm.weight\r\n    113:   58720256 | 14336,  4096,     1,     1 | F16     | blk.19.ffn_down.weight\r\n    114:   58720256 |  4096, 14336,     1,     1 | F16     | blk.19.ffn_gate.weight\r\n    115:   58720256 |  4096, 14336,     1,     1 | F16     | blk.19.ffn_up.weight\r\n    116:       4096 |  4096,     1,     1,     1 | F32     | blk.19.ffn_norm.weight\r\n    117:    4194304 |  4096,  1024,     1,     1 | F16     | blk.19.attn_k.weight\r\n    118:   16777216 |  4096,  4096,     1,     1 | F16     | blk.19.attn_output.weight\r\n    119:   16777216 |  4096,  4096,     1,     1 | F16     | blk.19.attn_q.weight\r\n    120:         64 |    64,     1,     1,     1 | F32     | blk.19.attn_rot_embd\r\n    121:    4194304 |  4096,  1024,     1,     1 | F16     | blk.19.attn_v.weight\r\n    122:       4096 |  4096,     1,     1,     1 | F32     | blk.2.attn_norm.weight\r\n    123:   58720256 | 14336,  4096,     1,     1 | F16     | blk.2.ffn_down.weight\r\n    124:   58720256 |  4096, 14336,     1,     1 | F16     | blk.2.ffn_gate.weight\r\n    125:   58720256 |  4096, 14336,     1,     1 | F16     | blk.2.ffn_up.weight\r\n    126:       4096 |  4096,     1,     1,     1 | F32     | blk.2.ffn_norm.weight\r\n    127:    4194304 |  4096,  1024,     1,     1 | F16     | blk.2.attn_k.weight\r\n    128:   16777216 |  4096,  4096,     1,     1 | F16     | blk.2.attn_output.weight\r\n    129:   16777216 |  4096,  4096,     1,     1 | F16     | blk.2.attn_q.weight\r\n    130:         64 |    64,     1,     1,     1 | F32     | blk.2.attn_rot_embd\r\n    131:    4194304 |  4096,  1024,     1,     1 | F16     | blk.2.attn_v.weight\r\n    132:       4096 |  4096,     1,     1,     1 | F32     | blk.20.attn_norm.weight\r\n    133:   58720256 |  4096, 14336,     1,     1 | F16     | blk.20.ffn_gate.weight\r\n    134:       4096 |  4096,     1,     1,     1 | F32     | blk.20.ffn_norm.weight\r\n    135:    4194304 |  4096,  1024,     1,     1 | F16     | blk.20.attn_k.weight\r\n    136:   16777216 |  4096,  4096,     1,     1 | F16     | blk.20.attn_output.weight\r\n    137:   16777216 |  4096,  4096,     1,     1 | F16     | blk.20.attn_q.weight\r\n    138:         64 |    64,     1,     1,     1 | F32     | blk.20.attn_rot_embd\r\n    139:    4194304 |  4096,  1024,     1,     1 | F16     | blk.20.attn_v.weight\r\n    140:       4096 |  4096,     1,     1,     1 | F32     | blk.3.attn_norm.weight\r\n    141:   58720256 | 14336,  4096,     1,     1 | F16     | blk.3.ffn_down.weight\r\n    142:   58720256 |  4096, 14336,     1,     1 | F16     | blk.3.ffn_gate.weight\r\n    143:   58720256 |  4096, 14336,     1,     1 | F16     | blk.3.ffn_up.weight\r\n    144:       4096 |  4096,     1,     1,     1 | F32     | blk.3.ffn_norm.weight\r\n    145:    4194304 |  4096,  1024,     1,     1 | F16     | blk.3.attn_k.weight\r\n    146:   16777216 |  4096,  4096,     1,     1 | F16     | blk.3.attn_output.weight\r\n    147:   16777216 |  4096,  4096,     1,     1 | F16     | blk.3.attn_q.weight\r\n    148:         64 |    64,     1,     1,     1 | F32     | blk.3.attn_rot_embd\r\n    149:    4194304 |  4096,  1024,     1,     1 | F16     | blk.3.attn_v.weight\r\n    150:       4096 |  4096,     1,     1,     1 | F32     | blk.4.attn_norm.weight\r\n    151:   58720256 | 14336,  4096,     1,     1 | F16     | blk.4.ffn_down.weight\r\n    152:   58720256 |  4096, 14336,     1,     1 | F16     | blk.4.ffn_gate.weight\r\n    153:   58720256 |  4096, 14336,     1,     1 | F16     | blk.4.ffn_up.weight\r\n    154:       4096 |  4096,     1,     1,     1 | F32     | blk.4.ffn_norm.weight\r\n    155:    4194304 |  4096,  1024,     1,     1 | F16     | blk.4.attn_k.weight\r\n    156:   16777216 |  4096,  4096,     1,     1 | F16     | blk.4.attn_output.weight\r\n    157:   16777216 |  4096,  4096,     1,     1 | F16     | blk.4.attn_q.weight\r\n    158:         64 |    64,     1,     1,     1 | F32     | blk.4.attn_rot_embd\r\n    159:    4194304 |  4096,  1024,     1,     1 | F16     | blk.4.attn_v.weight\r\n    160:       4096 |  4096,     1,     1,     1 | F32     | blk.5.attn_norm.weight\r\n    161:   58720256 | 14336,  4096,     1,     1 | F16     | blk.5.ffn_down.weight\r\n    162:   58720256 |  4096, 14336,     1,     1 | F16     | blk.5.ffn_gate.weight\r\n    163:   58720256 |  4096, 14336,     1,     1 | F16     | blk.5.ffn_up.weight\r\n    164:       4096 |  4096,     1,     1,     1 | F32     | blk.5.ffn_norm.weight\r\n    165:    4194304 |  4096,  1024,     1,     1 | F16     | blk.5.attn_k.weight\r\n    166:   16777216 |  4096,  4096,     1,     1 | F16     | blk.5.attn_output.weight\r\n    167:   16777216 |  4096,  4096,     1,     1 | F16     | blk.5.attn_q.weight\r\n    168:         64 |    64,     1,     1,     1 | F32     | blk.5.attn_rot_embd\r\n    169:    4194304 |  4096,  1024,     1,     1 | F16     | blk.5.attn_v.weight\r\n    170:       4096 |  4096,     1,     1,     1 | F32     | blk.6.attn_norm.weight\r\n    171:   58720256 | 14336,  4096,     1,     1 | F16     | blk.6.ffn_down.weight\r\n    172:   58720256 |  4096, 14336,     1,     1 | F16     | blk.6.ffn_gate.weight\r\n    173:   58720256 |  4096, 14336,     1,     1 | F16     | blk.6.ffn_up.weight\r\n    174:       4096 |  4096,     1,     1,     1 | F32     | blk.6.ffn_norm.weight\r\n    175:    4194304 |  4096,  1024,     1,     1 | F16     | blk.6.attn_k.weight\r\n    176:   16777216 |  4096,  4096,     1,     1 | F16     | blk.6.attn_output.weight\r\n    177:   16777216 |  4096,  4096,     1,     1 | F16     | blk.6.attn_q.weight\r\n    178:         64 |    64,     1,     1,     1 | F32     | blk.6.attn_rot_embd\r\n    179:    4194304 |  4096,  1024,     1,     1 | F16     | blk.6.attn_v.weight\r\n    180:       4096 |  4096,     1,     1,     1 | F32     | blk.7.attn_norm.weight\r\n    181:   58720256 | 14336,  4096,     1,     1 | F16     | blk.7.ffn_down.weight\r\n    182:   58720256 |  4096, 14336,     1,     1 | F16     | blk.7.ffn_gate.weight\r\n    183:   58720256 |  4096, 14336,     1,     1 | F16     | blk.7.ffn_up.weight\r\n    184:       4096 |  4096,     1,     1,     1 | F32     | blk.7.ffn_norm.weight\r\n    185:    4194304 |  4096,  1024,     1,     1 | F16     | blk.7.attn_k.weight\r\n    186:   16777216 |  4096,  4096,     1,     1 | F16     | blk.7.attn_output.weight\r\n    187:   16777216 |  4096,  4096,     1,     1 | F16     | blk.7.attn_q.weight\r\n    188:         64 |    64,     1,     1,     1 | F32     | blk.7.attn_rot_embd\r\n    189:    4194304 |  4096,  1024,     1,     1 | F16     | blk.7.attn_v.weight\r\n    190:       4096 |  4096,     1,     1,     1 | F32     | blk.8.attn_norm.weight\r\n    191:   58720256 | 14336,  4096,     1,     1 | F16     | blk.8.ffn_down.weight\r\n    192:   58720256 |  4096, 14336,     1,     1 | F16     | blk.8.ffn_gate.weight\r\n    193:   58720256 |  4096, 14336,     1,     1 | F16     | blk.8.ffn_up.weight\r\n    194:       4096 |  4096,     1,     1,     1 | F32     | blk.8.ffn_norm.weight\r\n    195:    4194304 |  4096,  1024,     1,     1 | F16     | blk.8.attn_k.weight\r\n    196:   16777216 |  4096,  4096,     1,     1 | F16     | blk.8.attn_output.weight\r\n    197:   16777216 |  4096,  4096,     1,     1 | F16     | blk.8.attn_q.weight\r\n    198:         64 |    64,     1,     1,     1 | F32     | blk.8.attn_rot_embd\r\n    199:    4194304 |  4096,  1024,     1,     1 | F16     | blk.8.attn_v.weight\r\n    200:       4096 |  4096,     1,     1,     1 | F32     | blk.9.attn_norm.weight\r\n    201:   58720256 | 14336,  4096,     1,     1 | F16     | blk.9.ffn_down.weight\r\n    202:   58720256 |  4096, 14336,     1,     1 | F16     | blk.9.ffn_gate.weight\r\n    203:   58720256 |  4096, 14336,     1,     1 | F16     | blk.9.ffn_up.weight\r\n    204:       4096 |  4096,     1,     1,     1 | F32     | blk.9.ffn_norm.weight\r\n    205:    4194304 |  4096,  1024,     1,     1 | F16     | blk.9.attn_k.weight\r\n    206:   16777216 |  4096,  4096,     1,     1 | F16     | blk.9.attn_output.weight\r\n    207:   16777216 |  4096,  4096,     1,     1 | F16     | blk.9.attn_q.weight\r\n    208:         64 |    64,     1,     1,     1 | F32     | blk.9.attn_rot_embd\r\n    209:    4194304 |  4096,  1024,     1,     1 | F16     | blk.9.attn_v.weight\r\n    210:  525336576 |  4096, 128256,     1,     1 | F16     | output.weight\r\n    211:   58720256 | 14336,  4096,     1,     1 | F16     | blk.20.ffn_down.weight\r\n    212:   58720256 |  4096, 14336,     1,     1 | F16     | blk.20.ffn_up.weight\r\n    213:       4096 |  4096,     1,     1,     1 | F32     | blk.21.attn_norm.weight\r\n    214:   58720256 | 14336,  4096,     1,     1 | F16     | blk.21.ffn_down.weight\r\n    215:   58720256 |  4096, 14336,     1,     1 | F16     | blk.21.ffn_gate.weight\r\n    216:   58720256 |  4096, 14336,     1,     1 | F16     | blk.21.ffn_up.weight\r\n    217:       4096 |  4096,     1,     1,     1 | F32     | blk.21.ffn_norm.weight\r\n    218:    4194304 |  4096,  1024,     1,     1 | F16     | blk.21.attn_k.weight\r\n    219:   16777216 |  4096,  4096,     1,     1 | F16     | blk.21.attn_output.weight\r\n    220:   16777216 |  4096,  4096,     1,     1 | F16     | blk.21.attn_q.weight\r\n    221:         64 |    64,     1,     1,     1 | F32     | blk.21.attn_rot_embd\r\n    222:    4194304 |  4096,  1024,     1,     1 | F16     | blk.21.attn_v.weight\r\n    223:       4096 |  4096,     1,     1,     1 | F32     | blk.22.attn_norm.weight\r\n    224:   58720256 | 14336,  4096,     1,     1 | F16     | blk.22.ffn_down.weight\r\n    225:   58720256 |  4096, 14336,     1,     1 | F16     | blk.22.ffn_gate.weight\r\n    226:   58720256 |  4096, 14336,     1,     1 | F16     | blk.22.ffn_up.weight\r\n    227:       4096 |  4096,     1,     1,     1 | F32     | blk.22.ffn_norm.weight\r\n    228:    4194304 |  4096,  1024,     1,     1 | F16     | blk.22.attn_k.weight\r\n    229:   16777216 |  4096,  4096,     1,     1 | F16     | blk.22.attn_output.weight\r\n    230:   16777216 |  4096,  4096,     1,     1 | F16     | blk.22.attn_q.weight\r\n    231:         64 |    64,     1,     1,     1 | F32     | blk.22.attn_rot_embd\r\n    232:    4194304 |  4096,  1024,     1,     1 | F16     | blk.22.attn_v.weight\r\n    233:       4096 |  4096,     1,     1,     1 | F32     | blk.23.attn_norm.weight\r\n    234:   58720256 | 14336,  4096,     1,     1 | F16     | blk.23.ffn_down.weight\r\n    235:   58720256 |  4096, 14336,     1,     1 | F16     | blk.23.ffn_gate.weight\r\n    236:   58720256 |  4096, 14336,     1,     1 | F16     | blk.23.ffn_up.weight\r\n    237:       4096 |  4096,     1,     1,     1 | F32     | blk.23.ffn_norm.weight\r\n    238:    4194304 |  4096,  1024,     1,     1 | F16     | blk.23.attn_k.weight\r\n    239:   16777216 |  4096,  4096,     1,     1 | F16     | blk.23.attn_output.weight\r\n    240:   16777216 |  4096,  4096,     1,     1 | F16     | blk.23.attn_q.weight\r\n    241:         64 |    64,     1,     1,     1 | F32     | blk.23.attn_rot_embd\r\n    242:    4194304 |  4096,  1024,     1,     1 | F16     | blk.23.attn_v.weight\r\n    243:       4096 |  4096,     1,     1,     1 | F32     | blk.24.attn_norm.weight\r\n    244:   58720256 | 14336,  4096,     1,     1 | F16     | blk.24.ffn_down.weight\r\n    245:   58720256 |  4096, 14336,     1,     1 | F16     | blk.24.ffn_gate.weight\r\n    246:   58720256 |  4096, 14336,     1,     1 | F16     | blk.24.ffn_up.weight\r\n    247:       4096 |  4096,     1,     1,     1 | F32     | blk.24.ffn_norm.weight\r\n    248:    4194304 |  4096,  1024,     1,     1 | F16     | blk.24.attn_k.weight\r\n    249:   16777216 |  4096,  4096,     1,     1 | F16     | blk.24.attn_output.weight\r\n    250:   16777216 |  4096,  4096,     1,     1 | F16     | blk.24.attn_q.weight\r\n    251:         64 |    64,     1,     1,     1 | F32     | blk.24.attn_rot_embd\r\n    252:    4194304 |  4096,  1024,     1,     1 | F16     | blk.24.attn_v.weight\r\n    253:       4096 |  4096,     1,     1,     1 | F32     | blk.25.attn_norm.weight\r\n    254:   58720256 | 14336,  4096,     1,     1 | F16     | blk.25.ffn_down.weight\r\n    255:   58720256 |  4096, 14336,     1,     1 | F16     | blk.25.ffn_gate.weight\r\n    256:   58720256 |  4096, 14336,     1,     1 | F16     | blk.25.ffn_up.weight\r\n    257:       4096 |  4096,     1,     1,     1 | F32     | blk.25.ffn_norm.weight\r\n    258:    4194304 |  4096,  1024,     1,     1 | F16     | blk.25.attn_k.weight\r\n    259:   16777216 |  4096,  4096,     1,     1 | F16     | blk.25.attn_output.weight\r\n    260:   16777216 |  4096,  4096,     1,     1 | F16     | blk.25.attn_q.weight\r\n    261:         64 |    64,     1,     1,     1 | F32     | blk.25.attn_rot_embd\r\n    262:    4194304 |  4096,  1024,     1,     1 | F16     | blk.25.attn_v.weight\r\n    263:       4096 |  4096,     1,     1,     1 | F32     | blk.26.attn_norm.weight\r\n    264:   58720256 | 14336,  4096,     1,     1 | F16     | blk.26.ffn_down.weight\r\n    265:   58720256 |  4096, 14336,     1,     1 | F16     | blk.26.ffn_gate.weight\r\n    266:   58720256 |  4096, 14336,     1,     1 | F16     | blk.26.ffn_up.weight\r\n    267:       4096 |  4096,     1,     1,     1 | F32     | blk.26.ffn_norm.weight\r\n    268:    4194304 |  4096,  1024,     1,     1 | F16     | blk.26.attn_k.weight\r\n    269:   16777216 |  4096,  4096,     1,     1 | F16     | blk.26.attn_output.weight\r\n    270:   16777216 |  4096,  4096,     1,     1 | F16     | blk.26.attn_q.weight\r\n    271:         64 |    64,     1,     1,     1 | F32     | blk.26.attn_rot_embd\r\n    272:    4194304 |  4096,  1024,     1,     1 | F16     | blk.26.attn_v.weight\r\n    273:       4096 |  4096,     1,     1,     1 | F32     | blk.27.attn_norm.weight\r\n    274:   58720256 | 14336,  4096,     1,     1 | F16     | blk.27.ffn_down.weight\r\n    275:   58720256 |  4096, 14336,     1,     1 | F16     | blk.27.ffn_gate.weight\r\n    276:   58720256 |  4096, 14336,     1,     1 | F16     | blk.27.ffn_up.weight\r\n    277:       4096 |  4096,     1,     1,     1 | F32     | blk.27.ffn_norm.weight\r\n    278:    4194304 |  4096,  1024,     1,     1 | F16     | blk.27.attn_k.weight\r\n    279:   16777216 |  4096,  4096,     1,     1 | F16     | blk.27.attn_output.weight\r\n    280:   16777216 |  4096,  4096,     1,     1 | F16     | blk.27.attn_q.weight\r\n    281:         64 |    64,     1,     1,     1 | F32     | blk.27.attn_rot_embd\r\n    282:    4194304 |  4096,  1024,     1,     1 | F16     | blk.27.attn_v.weight\r\n    283:       4096 |  4096,     1,     1,     1 | F32     | blk.28.attn_norm.weight\r\n    284:   58720256 | 14336,  4096,     1,     1 | F16     | blk.28.ffn_down.weight\r\n    285:   58720256 |  4096, 14336,     1,     1 | F16     | blk.28.ffn_gate.weight\r\n    286:   58720256 |  4096, 14336,     1,     1 | F16     | blk.28.ffn_up.weight\r\n    287:       4096 |  4096,     1,     1,     1 | F32     | blk.28.ffn_norm.weight\r\n    288:    4194304 |  4096,  1024,     1,     1 | F16     | blk.28.attn_k.weight\r\n    289:   16777216 |  4096,  4096,     1,     1 | F16     | blk.28.attn_output.weight\r\n    290:   16777216 |  4096,  4096,     1,     1 | F16     | blk.28.attn_q.weight\r\n    291:         64 |    64,     1,     1,     1 | F32     | blk.28.attn_rot_embd\r\n    292:    4194304 |  4096,  1024,     1,     1 | F16     | blk.28.attn_v.weight\r\n    293:       4096 |  4096,     1,     1,     1 | F32     | blk.29.attn_norm.weight\r\n    294:   58720256 | 14336,  4096,     1,     1 | F16     | blk.29.ffn_down.weight\r\n    295:   58720256 |  4096, 14336,     1,     1 | F16     | blk.29.ffn_gate.weight\r\n    296:   58720256 |  4096, 14336,     1,     1 | F16     | blk.29.ffn_up.weight\r\n    297:       4096 |  4096,     1,     1,     1 | F32     | blk.29.ffn_norm.weight\r\n    298:    4194304 |  4096,  1024,     1,     1 | F16     | blk.29.attn_k.weight\r\n    299:   16777216 |  4096,  4096,     1,     1 | F16     | blk.29.attn_output.weight\r\n    300:   16777216 |  4096,  4096,     1,     1 | F16     | blk.29.attn_q.weight\r\n    301:         64 |    64,     1,     1,     1 | F32     | blk.29.attn_rot_embd\r\n    302:    4194304 |  4096,  1024,     1,     1 | F16     | blk.29.attn_v.weight\r\n    303:       4096 |  4096,     1,     1,     1 | F32     | blk.30.attn_norm.weight\r\n    304:   58720256 | 14336,  4096,     1,     1 | F16     | blk.30.ffn_down.weight\r\n    305:   58720256 |  4096, 14336,     1,     1 | F16     | blk.30.ffn_gate.weight\r\n    306:   58720256 |  4096, 14336,     1,     1 | F16     | blk.30.ffn_up.weight\r\n    307:       4096 |  4096,     1,     1,     1 | F32     | blk.30.ffn_norm.weight\r\n    308:    4194304 |  4096,  1024,     1,     1 | F16     | blk.30.attn_k.weight\r\n    309:   16777216 |  4096,  4096,     1,     1 | F16     | blk.30.attn_output.weight\r\n    310:   16777216 |  4096,  4096,     1,     1 | F16     | blk.30.attn_q.weight\r\n    311:         64 |    64,     1,     1,     1 | F32     | blk.30.attn_rot_embd\r\n    312:    4194304 |  4096,  1024,     1,     1 | F16     | blk.30.attn_v.weight\r\n    313:       4096 |  4096,     1,     1,     1 | F32     | blk.31.attn_norm.weight\r\n    314:   58720256 | 14336,  4096,     1,     1 | F16     | blk.31.ffn_down.weight\r\n    315:   58720256 |  4096, 14336,     1,     1 | F16     | blk.31.ffn_gate.weight\r\n    316:   58720256 |  4096, 14336,     1,     1 | F16     | blk.31.ffn_up.weight\r\n    317:       4096 |  4096,     1,     1,     1 | F32     | blk.31.ffn_norm.weight\r\n    318:    4194304 |  4096,  1024,     1,     1 | F16     | blk.31.attn_k.weight\r\n    319:   16777216 |  4096,  4096,     1,     1 | F16     | blk.31.attn_output.weight\r\n    320:   16777216 |  4096,  4096,     1,     1 | F16     | blk.31.attn_q.weight\r\n    321:         64 |    64,     1,     1,     1 | F32     | blk.31.attn_rot_embd\r\n    322:    4194304 |  4096,  1024,     1,     1 | F16     | blk.31.attn_v.weight\r\n    323:       4096 |  4096,     1,     1,     1 | F32     | output_norm.weight\r\n```",
    "labels": [
      "bug-unconfirmed"
    ],
    "state": "closed",
    "created_at": "2024-05-02T16:02:28+00:00",
    "closed_at": "2024-05-02T23:49:10+00:00",
    "comments": 8,
    "reactions": {
      "url": "https://api.github.com/repos/ggml-org/llama.cpp/issues/7046/reactions",
      "total_count": 0,
      "+1": 0,
      "-1": 0,
      "laugh": 0,
      "hooray": 0,
…
--save-every 1 --threads 12 --adam-iter 30 --batch 4 --ctx 1100  -ngl 35 --no-checkpointing --epochs 3 --checkpoint-out ./check-ITERATION.gguf --sample-start \"<s>\"\r\nmain: seed: 1699603790\r\nmain: model base = '../../../Llama-2-7b.gguf'\r\nggml_init_cublas: GGML_CUDA_FORCE_MMQ:   no\r\nggml_init_cublas: CUDA_USE_TENSOR_CORES: yes\r\nggml_init_cublas: found 1 CUDA devices:\r\n  Device 0: NVIDIA A100-SXM4-40GB, compute capability 8.0\r\nllama_model_loader: loaded meta data with 18 key-value pairs and 291 tensors from ../../../Llama-2-7b.gguf (version GGUF V3 (latest))\r\nllama_model_loader: - tensor    0:                token_embd.weight f16      [  4096, 32000,     1,     1 ]\r\nllama_model_loader: - tensor    1:           blk.0.attn_norm.weight f32      [  4096,     1,     1,     1 ]\r\nllama_model_loader: - tensor    2:            blk.0.ffn_down.weight f16      [ 11008,  4096,     1,     1 ]\r\nllama_model_loader: - tensor    3:            blk.0.ffn_gate.weight f16      [  4096, 11008,     1,     1 ]\r\nllama_model_loader: - tensor    4:              blk.0.ffn_up.weight f16      [  4096, 11008,     1,     1 ]\r\nllama_model_loader: - tensor    5:            blk.0.ffn_norm.weight f32      [  4096,     1,     1,     1 ]\r\nllama_model_loader: - tensor    6:              blk.0.attn_k.weight f16      [  4096,  4096,     1,     1 ]\r\nllama_model_loader: - tensor    7:         blk.0.attn_output.weight f16      [  4096,  4096,     1,     1 ]\r\nllama_model_loader: - tensor    8:              blk.0.attn_q.weight f16      [  4096,  4096,     1,     1 ]\r\nllama_model_loader: - tensor    9:              blk.0.attn_v.weight f16      [  4096,  4096,     1,     1 ]\r\nllama_model_loader: - tensor   10:           blk.1.attn_norm.weight f32      [  4096,     1,     1,     1 ]\r\nllama_model_loader: - tensor   11:            blk.1.ffn_down.weight f16      [ 11008,  4096,     1,     1 ]\r\nllama_model_loader: - tensor   12:            blk.1.ffn_gate.weight f16      [  4096, 11008,     1,     1 ]\r\nllama_model_loader: - tensor   13:              blk.1.ffn_up.weight f16      [  4096, 11008,     1,     1 ]\r\nllama_model_loader: - tensor   14:            blk.1.ffn_norm.weight f32      [  4096,     1,     1,     1 ]\r\nllama_model_loader: - tensor   15:              blk.1.attn_k.weight f16      [  4096,  4096,     1,     1 ]\r\nllama_model_loader: - tensor   16:         blk.1.attn_output.weight f16      [  4096,  4096,     1,     1 ]\r\nllama_model_loader: - tensor   17:              blk.1.attn_q.weight f16      [  4096,  4096,     1,     1 ]\r\nllama_model_loader: - tensor   18:              blk.1.attn_v.weight f16      [  4096,  4096,     1,     1 ]\r\nllama_model_loader: - tensor   19:          blk.10.attn_norm.weight f32      [  4096,     1,     1,     1 ]\r\nllama_model_loader: - tensor   20:           blk.10.ffn_down.weight f16      [ 11008,  4096,     1,     1 ]\r\nllama_model_loader: - tensor   21:           blk.10.ffn_gate.weight f16      [  4096, 11008,     1,     1 ]\r\nllama_model_loader: - tensor   22:             blk.10.ffn_up.weight f16      [  4096, 11008,     1,     1 ]\r\nllama_model_loader: - tensor   23:           blk.10.ffn_norm.weight f32      [  4096,     1,     1,     1 ]\r\nllama_model_loader: - tensor   24:             blk.10.attn_k.weight f16      [  4096,  4096,     1,     1 ]\r\nllama_model_loader: - tensor   25:        blk.10.attn_output.weight f16      [  4096,  4096,     1,     1 ]\r\nllama_model_loader: - tensor   26:             blk.10.attn_q.weight f16      [  4096,  4096,     1,     1 ]\r\nllama_model_loader: - tensor   27:             blk.10.attn_v.weight f16      [  4096,  4096,     1,     1 ]\r\nllama_model_loader: - tensor   28:          blk.11.attn_norm.weight f32      [  4096,     1,     1,     1 ]\r\nllama_model_loader: - tensor   29:           blk.11.ffn_down.weight f16      [ 11008,  4096,     1,     1 ]\r\nllama_model_loader: - tensor   30:           blk.11.ffn_gate.weight f16      [  4096, 11008,     1,     1 ]\r\nllama_model_loader: - tensor   31:             blk.11.ffn_up.weight f16      [  4096, 11008,     1,     1 ]\r\nllama_model_loader: - tensor   32:           blk.11.ffn_norm.weight f32      [  4096,     1,     1,     1 ]\r\nllama_model_loader: - tensor   33:             blk.11.attn_k.weight f16      [  4096,  4096,     1,     1 ]\r\nllama_model_loader: - tensor   34:        blk.11.attn_output.weight f16      [  4096,  4096,     1,     1 ]\r\nllama_model_loader: - tensor   35:             blk.11.attn_q.weight f16      [  4096,  4096,     1,     1 ]\r\nllama_model_loader: - tensor   36:             blk.11.attn_v.weight f16      [  4096,  4096,     1,     1 ]\r\nllama_model_loader: - tensor   37:          blk.12.attn_norm.weight f32      [  4096,     1,     1,     1 ]\r\nllama_model_loader: - tensor   38:           blk.12.ffn_down.weight f16      [ 11008,  4096,     1,     1 ]\r\nllama_model_loader: - tensor   39:           blk.12.ffn_gate.weight f16      [  4096, 11008,     1,     1 ]\r\nllama_model_loader: - tensor   40:             blk.12.ffn_up.weight f16      [  4096, 11008,     1,     1 ]\r\nllama_model_loader: - tensor   41:           blk.12.ffn_norm.weight f32      [  4096,     1,     1,     1 ]\r\nllama_model_loader: - tensor   42:             blk.12.attn_k.weight f16      [  4096,  4096,     1,     1 ]\r\nllama_model_loader: - tensor   43:        blk.12.attn_output.weight f16      [  4096,  4096,     1,     1 ]\r\nllama_model_loader: - tensor   44:             blk.12.attn_q.weight f16      [  4096,  4096,     1,     1 ]\r\nllama_model_loader: - tensor   45:             blk.12.attn_v.weight f16      [  4096,  4096,     1,     1 ]\r\nllama_model_loader: - tensor   46:          blk.13.attn_norm.weight f32      [  4096,     1,     1,     1 ]\r\nllama_model_loader: - tensor   47:           blk.13.ffn_down.weight f16      [ 11008,  4096,     1,     1 ]\r\nllama_model_loader: - tensor   48:           blk.13.ffn_gate.weight f16      [  4096, 11008,     1,     1 ]\r\nllama_model_loader: - tensor   49:             blk.13.ffn_up.weight f16      [  4096, 11008,     1,     1 ]\r\nllama_model_loader: - tensor   50:           blk.13.ffn_norm.weight f32      [  4096,     1,     1,     1 ]\r\nllama_model_loader: - tensor   51:             blk.13.attn_k.weight f16      [  4096,  4096,     1,     1 ]\r\nllama_model_loader: - tensor   52:        blk.13.attn_output.weight f16      [  4096,  4096,     1,     1 ]\r\nllama_model_loader: - tensor   53:             blk.13.attn_q.weight f16      [  4096,  4096,     1,     1 ]\r\nllama_model_loader: - tensor   54:             blk.13.attn_v.weight f16      [  4096,  4096,     1,     1 ]\r\nllama_model_loader: - tensor   55:          blk.14.attn_norm.weight f32      [  4096,     1,     1,     1 ]\r\nllama_model_loader: - tensor   56:           blk.14.ffn_down.weight f16      [ 11008,  4096,     1,     1 ]\r\nllama_model_loader: - tensor   57:           blk.14.ffn_gate.weight f16      [  4096, 11008,     1,     1 ]\r\nllama_model_loader: - tensor   58:             blk.14.ffn_up.weight f16      [  4096, 11008,     1,     1 ]\r\nllama_model_loader: - tensor   59:           blk.14.ffn_norm.weight f32      [  4096,     1,     1,     1 ]\r\nllama_model_loader: - tensor   60:             blk.14.attn_k.weight f16      [  4096,  4096,     1,     1 ]\r\nllama_model_loader: - tensor   61:        blk.14.attn_output.weight f16      [  4096,  4096,     1,     1 ]\r\nllama_model_loader: - tensor   62:             blk.14.attn_q.weight f16      [  4096,  4096,     1,     1 ]\r\nllama_model_loader: - tensor   63:             blk.14.attn_v.weight f16      [  4096,  4096,     1,     1 ]\r\nllama_model_loader: - tensor   64:          blk.15.attn_norm.weight f32      [  4096,     1,     1,     1 ]\r\nllama_model_loader: - tensor   65:           blk.15.ffn_down.weight f16      [ 11008,  4096,     1,     1 ]\r\nllama_model_loader: - tensor   66:           blk.15.ffn_gate.weight f16      [  4096, 11008,     1,     1 ]\r\nllama_model_loader: - tensor   67:             blk.15.ffn_up.weight f16      [  4096, 11008,     1,     1 ]\r\nllama_model_loader: - tensor   68:           blk.15.ffn_norm.weight f32      [  4096,     1,     1,     1 ]\r\nllama_model_loader: - tensor   69:             blk.15.attn_k.weight f16      [  4096,  4096,     1,     1 ]\r\nllama_model_loader: - tensor   70:        blk.15.attn_output.weight f16      [  4096,  4096,     1,     1 ]\r\nllama_model_loader: - tensor   71:             blk.15.attn_q.weight f16      [  4096,  4096,     1,     1 ]\r\nllama_model_loader: - tensor   72:             blk.15.attn_v.weight f16      [  4096,  4096,     1,     1 ]\r\nllama_model_loader: - tensor   73:          blk.16.attn_norm.weight f32      [  4096,     1,     1,     1 ]\r\nllama_model_loader: - tensor   74:           blk.16.ffn_down.weight f16      [ 11008,  4096,     1,     1 ]\r\nllama_model_loader: - tensor   75:           blk.16.ffn_gate.weight f16      [  4096, 11008,     1,     1 ]\r\nllama_model_loader: - tensor   76:             blk.16.ffn_up.weight f16      [  4096, 11008,     1,     1 ]\r\nllama_model_loader: - tensor   77:           blk.16.ffn_norm.weight f32      [  4096,     1,     1,     1 ]\r\nllama_model_loader: - tensor   78:             blk.16.attn_k.weight f16      [  4096,  4096,     1,     1 ]\r\nllama_model_loader: - tensor   79:        blk.16.attn_output.weight f16      [  4096,  4096,     1,     1 ]\r\nllama_model_loader: - tensor   80:             blk.16.attn_q.weight f16      [  4096,  4096,     1,     1 ]\r\nllama_model_loader: - tensor   81:             blk.16.attn_v.weight f16      [  4096,  4096,     1,     1 ]\r\nllama_model_loader: - tensor   82:          blk.17.attn_norm.weight f32      [  4096,     1,     1,     1 ]\r\nllama_model_loader: - tensor   83:           blk.17.ffn_down.weight f16      [ 11008,  4096,     1,     1 ]\r\nllama_model_loader: - tensor   84:           blk.17.ffn_gate.weight f16      [  4096, 11008,     1,     1 ]\r\nllama_model_loader: - tensor   85:             blk.17.ffn_up.weight f16      [  4096, 11008,     1,     1 ]\r\nllama_model_loader: - tensor   86:           blk.17.ffn_norm.weight f32      [  4096,     1,     1,     1 ]\r\nllama_model_loader: - tensor   87:             blk.17.attn_k.weight f16      [  4096,  4096,     1,     1 ]\r\nllama_model_loader: - tensor   88:        blk.17.attn_output.weight f16      [  4096,  4096,     1,     1 ]\r\nllama_model_loader: - tensor   89:             blk.17.attn_q.weight f16      [  4096,  4096,     1,     1 ]\r\nllama_model_loader: - tensor   90:             blk.17.attn_v.weight f16      [  4096,  4096,     1,     1 ]\r\nllama_model_loader: - tensor   91:          blk.18.attn_norm.weight f32      [  4096,     1,     1,     1 ]\r\nllama_model_loader: - tensor   92:           blk.18.ffn_down.weight f16      [ 11008,  4096,     1,     1 ]\r\nllama_model_loader: - tensor   93:           blk.18.ffn_gate.weight f16      [  4096, 11008,     1,     1 ]\r\nllama_model_loader: - tensor   94:             blk.18.ffn_up.weight f16      [  4096, 11008,     1,     1 ]\r\nllama_model_loader: - tensor   95:           blk.18.ffn_norm.weight f32      [  4096,     1,     1,     1 ]\r\nllama_model_loader: - tensor   96:             blk.18.attn_k.weight f16      [  4096,  4096,     1,     1 ]\r\nllama_model_loader: - tensor   97:        blk.18.attn_output.weight f16      [  4096,  4096,     1,     1 ]\r\nllama_model_loader: - tensor   98:             blk.18.attn_q.weight f16      [  4096,  4096,     1,     1 ]\r\nllama_model_loader: - tensor   99:             blk.18.attn_v.weight f16      [  4096,  4096,     1,     1 ]\r\nllama_model_loader: - tensor  100:          blk.19.attn_norm.weight f32      [  4096,     1,     1,     1 ]\r\nllama_model_loader: - tensor  101:           blk.19.ffn_down.weight f16      [ 11008,  4096,     1,     1 ]\r\nllama_model_loader: - tensor  102:           blk.19.ffn_gate.weight f16      [  4096, 11008,     1,     1 ]\r\nllama_model_loader: - tensor  103:             blk.19.ffn_up.weight f16      [  4096, 11008,     1,     1 ]\r\nllama_model_loader: - tensor  104:           blk.19.ffn_norm.weight f32      [  4096,     1,     1,     1 ]\r\nllama_model_loader: - tensor  105:             blk.19.attn_k.weight f16      [  4096,  4096,     1,     1 ]\r\nllama_model_loader: - tensor  106:        blk.19.attn_output.weight f16      [  4096,  4096,     1,     1 ]\r\nllama_model_loader: - tensor  107:             blk.19.attn_q.weight f16      [  4096,  4096,     1,     1 ]\r\nllama_model_loader: - tensor  108:             blk.19.attn_v.weight f16      [  4096,  4096,     1,     1 ]\r\nllama_model_loader: - tensor  109:           blk.2.attn_norm.weight f32      [  4096,     1,     1,     1 ]\r\nllama_model_loader: - tensor  110:            blk.2.ffn_down.weight f16      [ 11008,  4096,     1,     1 ]\r\nllama_model_loader: - tensor  111:            blk.2.ffn_gate.weight f16      [  4096, 11008,     1,     1 ]\r\nllama_model_loader: - tensor  112:              blk.2.ffn_up.weight f16      [  4096, 11008,     1,     1 ]\r\nllama_model_loader: - tensor  113:            blk.2.ffn_norm.weight f32      [  4096,     1,     1,     1 ]\r\nllama_model_loader: - tensor  114:              blk.2.attn_k.weight f16      [  4096,  4096,     1,     1 ]\r\nllama_model_loader: - tensor  115:         blk.2.attn_output.weight f16      [  4096,  4096,     1,     1 ]\r\nllama_model_loader: - tensor  116:              blk.2.attn_q.weight f16      [  4096,  4096,     1,     1 ]\r\nllama_model_loader: - tensor  117:              blk.2.attn_v.weight f16      [  4096,  4096,     1,     1 ]\r\nllama_model_loader: - tensor  118:          blk.20.attn_norm.weight f32      [  4096,     1,     1,     1 ]\r\nllama_model_loader: - tensor  119:           blk.20.ffn_down.weight f16      [ 11008,  4096,     1,     1 ]\r\nllama_model_loader: - tensor  120:           blk.20.ffn_gate.weight f16      [  4096, 11008,     1,     1 ]\r\nllama_model_loader: - tensor  121:             blk.20.ffn_up.weight f16      [  4096, 11008,     1,     1 ]\r\nllama_model_loader: - tensor  122:           blk.20.ffn_norm.weight f32      [  4096,     1,     1,     1 ]\r\nllama_model_loader: - tensor  123:             blk.20.attn_k.weight f16      [  4096,  4096,     1,     1 ]\r\nllama_model_loader: - tensor  124:        blk.20.attn_output.weight f16      [  4096,  4096,     1,     1 ]\r\nllama_model_loader: - tensor  125:             blk.20.attn_q.weight f16      [  4096,  4096,     1,     1 ]\r\nllama_model_loader: - tensor  126:             blk.20.attn_v.weight f16      [  4096,  4096,     1,     1 ]\r\nllama_model_loader: - tensor  127:          blk.21.attn_norm.weight f32      [  4096,     1,     1,     1 ]\r\nllama_model_loader: - tensor  128:           blk.21.ffn_down.weight f16      [ 11008,  4096,     1,     1 ]\r\nllama_model_loader: - tensor  129:           blk.21.ffn_gate.weight f16      [  4096, 11008,     1,     1 ]\r\nllama_model_loader: - tensor  130:             blk.21.ffn_up.weight f16      [  4096, 11008,     1,     1 ]\r\nllama_model_loader: - tensor  131:           blk.21.ffn_norm.weight f32      [  4096,     1,     1,     1 ]\r\nllama_model_loader: - tensor  132:             blk.21.attn_k.weight f16      [  4096,  4096,     1,     1 ]\r\nllama_model_loader: - tensor  133:        blk.21.attn_output.weight f16      [  4096,  4096,     1,     1 ]\r\nllama_model_loader: - tensor  134:             blk.21.attn_q.weight f16      [  4096,  4096,     1,     1 ]\r\nllama_model_loader: - tensor  135:             blk.21.attn_v.weight f16      [  4096,  4096,     1,     1 ]\r\nllama_model_loader: - tensor  136:          blk.22.attn_norm.weight f32      [  4096,     1,     1,     1 ]\r\nllama_model_loader: - tensor  137:           blk.22.ffn_down.weight f16      [ 11008,  4096,     1,     1 ]\r\nllama_model_loader: - tensor  138:           blk.22.ffn_gate.weight f16      [  4096, 11008,     1,     1 ]\r\nllama_model_loader: - tensor  139:             blk.22.ffn_up.weight f16      [  4096, 11008,     1,     1 ]\r\nllama_model_loader: - tensor  140:           blk.22.ffn_norm.weight f32      [  4096,     1,     1,     1 ]\r\nllama_model_loader: - tensor  141:             blk.22.attn_k.weight f16      [  4096,  4096,     1,     1 ]\r\nllama_model_loader: - tensor  142:        blk.22.attn_output.weight f16      [  4096,  4096,     1,     1 ]\r\nllama_model_loader: - tensor  143:             blk.22.attn_q.weight f16      [  4096,  4096,     1,     1 ]\r\nllama_model_loader: - tensor  144:             blk.22.attn_v.weight f16      [  4096,  4096,     1,     1 ]\r\nllama_model_loader: - tensor  145:          blk.23.attn_norm.weight f32      [  4096,     1,     1,     1 ]\r\nllama_model_loader: - tensor  146:           blk.23.ffn_down.weight f16      [ 11008,  4096,     1,     1 ]\r\nllama_model_loader: - tensor  147:           blk.23.ffn_gate.weight f16      [  4096, 11008,     1,     1 ]\r\nllama_model_loader: - tensor  148:             blk.23.ffn_up.weight f16      [  4096, 11008,     1,     1 ]\r\nllama_model_loader: - tensor  149:           blk.23.ffn_norm.weight f32      [  4096,     1,     1,     1 ]\r\nllama_model_loader: - tensor  150:             blk.23.attn_k.weight f16      [  4096,  4096,     1,     1 ]\r\nllama_model_loader: - tensor  151:        blk.23.attn_output.weight f16      [  4096,  4096,     1,     1 ]\r\nllama_model_loader: - tensor  152:             blk.23.attn_q.weight f16      [  4096,  4096,     1,     1 ]\r\nllama_model_loader: - tensor  153:             blk.23.attn_v.weight f16      [  4096,  4096,     1,     1 ]\r\nllama_model_loader: - tensor  154:           blk.3.attn_norm.weight f32      [  4096,     1,     1,     1 ]\r\nllama_model_loader: - tensor  155:            blk.3.ffn_down.weight f16      [ 11008,  4096,     1,     1 ]\r\nllama_model_loader: - tensor  156:            blk.3.ffn_gate.weight f16      [  4096, 11008,     1,     1 ]\r\nllama_model_loader: - tensor  157:              blk.3.ffn_up.weight f16      [  4096, 11008,     1,     1 ]\r\nllama_model_loader: - tensor  158:            blk.3.ffn_norm.weight f32      [  4096,     1,     1,     1 ]\r\nllama_model_loader: - tensor  159:              blk.3.attn_k.weight f16      [  4096,  4096,     1,     1 ]\r\nllama_model_loader: - tensor  160:         blk.3.attn_output.weight f16      [  4096,  4096,     1,     1 ]\r\nllama_model_loader: - tensor  161:              blk.3.attn_q.weight f16      [  4096,  4096,     1,     1 ]\r\nllama_model_loader: - tensor  162:              blk.3.attn_v.weight f16      [  4096,  4096,     1,     1 ]\r\nllama_model_loader: - tensor  163:           blk.4.attn_norm.weight f32      [  4096,     1,     1,     1 ]\r\nllama_model_loader: - tensor  164:            blk.4.ffn_down.weight f16      [ 11008,  4096,     1,     1 ]\r\nllama_model_loader: - tensor  165:            blk.4.ffn_gate.weight f16      [  4096, 11008,     1,     1 ]\r\nllama_model_loader: - tensor  166:              blk.4.ffn_up.weight f16      [  4096, 11008,     1,     1 ]\r\nllama_model_loader: - tensor  167:            blk.4.ffn_norm.weight f32      [  4096,     1,     1,     1 ]\r\nllama_model_loader: - tensor  168:              blk.4.attn_k.weight f16      [  4096,  4096,     1,     1 ]\r\nllama_model_loader: - tensor  169:         blk.4.attn_output.weight f16      [  4096,  4096,     1,     1 ]\r\nllama_model_loader: - tensor  170:              blk.4.attn_q.weight f16      [  4096,  4096,     1,     1 ]\r\nllama_model_loader: - tensor  171:              blk.4.attn_v.weight f16      [  4096,  4096,     1,     1 ]\r\nllama_model_loader: - tensor  172:           blk.5.attn_norm.weight f32      [  4096,     1,     1,     1 ]\r\nllama_model_loader: - tensor  173:            blk.5.ffn_down.weight f16      [ 11008,  4096,     1,     1 ]\r\nllama_model_loader: - tensor  174:            blk.5.ffn_gate.weight f16      [  4096, 11008,     1,     1 ]\r\nllama_model_loader: - tensor  175:              blk.5.ffn_up.weight f16      [  4096, 11008,     1,     1 ]\r\nllama_model_loader: - tensor  176:            blk.5.ffn_norm.weight f32      [  4096,     1,     1,     1 ]\r\nllama_model_loader: - tensor  177:              blk.5.attn_k.weight f16      [  4096,  4096,     1,     1 ]\r\nllama_model_loader: - tensor  178:         blk.5.attn_output.weight f16      [  4096,  4096,     1,     1 ]\r\nllama_model_loader: - tensor  179:              blk.5.attn_q.weight f16      [  4096,  4096,     1,     1 ]\r\nllama_model_loader: - tensor  180:              blk.5.attn_v.weight f16      [  4096,  4096,     1,     1 ]\r\nllama_model_loader: - tensor  181:           blk.6.attn_norm.weight f32      [  4096,     1,     1,     1 ]\r\nllama_model_loader: - tensor  182:            blk.6.ffn_down.weight f16      [ 11008,  4096,     1,     1 ]\r\nllama_model_loader: - tensor  183:            blk.6.ffn_gate.weight f16      [  4096, 11008,     1,     1 ]\r\nllama_model_loader: - tensor  184:              blk.6.ffn_up.weight f16      [  4096, 11008,     1,     1 ]\r\nllama_model_loader: - tensor  185:            blk.6.ffn_norm.weight f32      [  4096,     1,     1,     1 ]\r\nllama_model_loader: - tensor  186:              blk.6.attn_k.weight f16      [  4096,  4096,     1,     1 ]\r\nllama_model_loader: - tensor  187:         blk.6.attn_output.weight f16      [  4096,  4096,     1,     1 ]\r\nllama_model_loader: - tensor  188:              blk.6.attn_q.weight f16      [  4096,  4096,     1,     1 ]\r\nllama_model_loader: - tensor  189:              blk.6.attn_v.weight f16      [  4096,  4096,     1,     1 ]\r\nllama_model_loader: - tensor  190:           blk.7.attn_norm.weight f32      [  4096,     1,     1,     1 ]\r\nllama_model_loader: - tensor  191:            blk.7.ffn_down.weight f16      [ 11008,  4096,     1,     1 ]\r\nllama_model_loader: - tensor  192:            blk.7.ffn_gate.weight f16      [  4096, 11008,     1,     1 ]\r\nllama_model_loader: - tensor  193:              blk.7.ffn_up.weight f16      [  4096, 11008,     1,     1 ]\r\nllama_model_loader: - tensor  194:            blk.7.ffn_norm.weight f32      [  4096,     1,     1,     1 ]\r\nllama_model_loader: - tensor  195:              blk.7.attn_k.weight f16      [  4096,  4096,     1,     1 ]\r\nllama_model_loader: - tensor  196:         blk.7.attn_output.weight f16      [  4096,  4096,     1,     1 ]\r\nllama_model_loader: - tensor  197:              blk.7.attn_q.weight f16      [  4096,  4096,     1,     1 ]\r\nllama_model_loader: - tensor  198:              blk.7.attn_v.weight f16      [  4096,  4096,     1,     1 ]\r\nllama_model_loader: - tensor  199:           blk.8.attn_norm.weight f32      [  4096,     1,     1,     1 ]\r\nllama_model_loader: - tensor  200:            blk.8.ffn_down.weight f16      [ 11008,  4096,     1,     1 ]\r\nllama_model_loader: - tensor  201:            blk.8.ffn_gate.weight f16      [  4096, 11008,     1,     1 ]\r\nllama_model_loader: - tensor  202:              blk.8.ffn_up.weight f16      [  4096, 11008,     1,     1 ]\r\nllama_model_loader: - tensor  203:            blk.8.ffn_norm.weight f32      [  4096,     1,     1,     1 ]\r\nllama_model_loader: - tensor  204:              blk.8.attn_k.weight f16      [  4096,  4096,     1,     1 ]\r\nllama_model_loader: - tensor  205:         blk.8.attn_output.weight f16      [  4096,  4096,     1,     1 ]\r\nllama_model_loader: - tensor  206:              blk.8.attn_q.weight f16      [  4096,  4096,     1,     1 ]\r\nllama_model_loader: - tensor  207:              blk.8.attn_v.weight f16      [  4096,  4096,     1,     1 ]\r\nllama_model_loader: - tensor  208:           blk.9.attn_norm.weight f32      [  4096,     1,     1,     1 ]\r\nllama_model_loader: - tensor  209:            blk.9.ffn_down.weight f16      [ 11008,  4096,     1,     1 ]\r\nllama_model_loader: - tensor  210:            blk.9.ffn_gate.weight f16      [  4096, 11008,     1,     1 ]\r\nllama_model_loader: - tensor  211:              blk.9.ffn_up.weight f16      [  4096, 11008,     1,     1 ]\r\nllama_model_loader: - tensor  212:            blk.9.ffn_norm.weight f32      [  4096,     1,     1,     1 ]\r\nllama_model_loader: - tensor  213:              blk.9.attn_k.weight f16      [  4096,  4096,     1,     1 ]\r\nllama_model_loader: - tensor  214:         blk.9.attn_output.weight f16      [  4096,  4096,     1,     1 ]\r\nllama_model_loader: - tensor  215:              blk.9.attn_q.weight f16      [  4096,  4096,     1,     1 ]\r\nllama_model_loader: - tensor  216:              blk.9.attn_v.weight f16      [  4096,  4096,     1,     1 ]\r\nllama_model_loader: - tensor  217:                    output.weight f16      [  4096, 32000,     1,     1 ]\r\nllama_model_loader: - tensor  218:          blk.24.attn_norm.weight f32      [  4096,     1,     1,     1 ]\r\nllama_model_loader: - tensor  219:           blk.24.ffn_down.weight f16      [ 11008,  4096,     1,     1 ]\r\nllama_model_loader: - tensor  220:           blk.24.ffn_gate.weight f16      [  4096, 11008,     1,     1 ]\r\nllama_model_loader: - tensor  221:             blk.24.ffn_up.weight f16      [  4096, 11008,     1,     1 ]\r\nllama_model_loader: - tensor  222:           blk.24.ffn_norm.weight f32      [  4096,     1,     1,     1 ]\r\nllama_model_loader: - tensor  223:             blk.24.attn_k.weight f16      [  4096,  4096,     1,     1 ]\r\nllama_model_loader: - tensor  224:        blk.24.attn_output.weight f16      [  4096,  4096,     1,     1 ]\r\nllama_model_loader: - tensor  225:             blk.24.attn_q.weight f16      [  4096,  4096,     1,     1 ]\r\nllama_model_loader: - tensor  226:             blk.24.attn_v.weight f16      [  4096,  4096,     1,     1 ]\r\nllama_model_loader: - tensor  227:          blk.25.attn_norm.weight f32      [  4096,     1,     1,     1 ]\r\nllama_model_loader: - tensor  228:           blk.25.ffn_down.weight f16      [ 11008,  4096,     1,     1 ]\r\nllama_model_loader: - tensor  229:           blk.25.ffn_gate.weight f16      [  4096, 11008,     1,     1 ]\r\nllama_model_loader: - tensor  230:             blk.25.ffn_up.weight f16      [  4096, 11008,     1,     1 ]\r\nllama_model_loader: - tensor  231:           blk.25.ffn_norm.weight f32      [  4096,     1,     1,     1 ]\r\nllama_model_loader: - tensor  232:             blk.25.attn_k.weight f16      [  4096,  4096,     1,     1 ]\r\nllama_model_loader: - tensor  233:        blk.25.attn_output.weight f16      [  4096,  4096,     1,     1 ]\r\nllama_model_loader: - tensor  234:             blk.25.attn_q.weight f16      [  4096,  4096,     1,     1 ]\r\nllama_model_loader: - tensor  235:             blk.25.attn_v.weight f16      [  4096,  4096,     1,     1 ]\r\nllama_model_loader: - tensor  236:          blk.26.attn_norm.weight f32      [  4096,     1,     1,     1 ]\r\nllama_model_loader: - tensor  237:           blk.26.ffn_down.weight f16      [ 11008,  4096,     1,     1 ]\r\nllama_model_loader: - tensor  238:           blk.26.ffn_gate.weight f16      [  4096, 11008,     1,     1 ]\r\nllama_model_loader: - tensor  239:             blk.26.ffn_up.weight f16      [  4096, 11008,     1,     1 ]\r\nllama_model_loader: - tensor  240:           blk.26.ffn_norm.weight f32      [  4096,     1,     1,     1 ]\r\nllama_model_loader: - tensor  241:             blk.26.attn_k.weight f16      [  4096,  4096,     1,     1 ]\r\nllama_model_loader: - tensor  242:        blk.26.attn_output.weight f16      [  4096,  4096,     1,     1 ]\r\nllama_model_loader: - tensor  243:             blk.26.attn_q.weight f16      [  4096,  4096,     1,     1 ]\r\nllama_model_loader: - tensor  244:             blk.26.attn_v.weight f16      [  4096,  4096,     1,     1 ]\r\nllama_model_loader: - tensor  245:          blk.27.attn_norm.weight f32      [  4096,     1,     1,     1 ]\r\nllama_model_loader: - tensor  246:           blk.27.ffn_down.weight f16      [ 11008,  4096,     1,     1 ]\r\nllama_model_loader: - tensor  247:           blk.27.ffn_gate.weight f16      [  4096, 11008,     1,     1 ]\r\nllama_model_loader: - tensor  248:             blk.27.ffn_up.weight f16      [  4096, 11008,     1,     1 ]\r\nllama_model_loader: - tensor  249:           blk.27.ffn_norm.weight f32      [  4096,     1,     1,     1 ]\r\nllama_model_loader: - tensor  250:             blk.27.attn_k.weight f16      [  4096,  4096,     1,     1 ]\r\nllama_model_loader: - tensor  251:        blk.27.attn_output.weight f16      [  4096,  4096,     1,     1 ]\r\nllama_model_loader: - tensor  252:             blk.27.attn_q.weight f16      [  4096,  4096,     1,     1 ]\r\nllama_model_loader: - tensor  253:             blk.27.attn_v.weight f16      [  4096,  4096,     1,     1 ]\r\nllama_model_loader: - tensor  254:          blk.28.attn_norm.weight f32      [  4096,     1,     1,     1 ]\r\nllama_model_loader: - tensor  255:           blk.28.ffn_down.weight f16      [ 11008,  4096,     1,     1 ]\r\nllama_model_loader: - tensor  256:           blk.28.ffn_gate.weight f16      [  4096, 11008,     1,     1 ]\r\nllama_model_loader: - tensor  257:             blk.28.ffn_up.weight f16      [  4096, 11008,     1,     1 ]\r\nllama_model_loader: - tensor  258:           blk.28.ffn_norm.weight f32      [  4096,     1,     1,     1 ]\r\nllama_model_loader: - tensor  259:             blk.28.attn_k.weight f16      [  4096,  4096,     1,     1 ]\r\nllama_model_loader: - tensor  260:        blk.28.attn_output.weight f16      [  4096,  4096,     1,     1 ]\r\nllama_model_loader: - tensor  261:             blk.28.attn_q.weight f16      [  4096,  4096,     1,     1 ]\r\nllama_model_loader: - tensor  262:             blk.28.attn_v.weight f16      [  4096,  4096,     1,     1 ]\r\nllama_model_loader: - tensor  263:          blk.29.attn_norm.weight f32      [  4096,     1,     1,     1 ]\r\nllama_model_loader: - tensor  264:           blk.29.ffn_down.weight f16      [ 11008,  4096,     1,     1 ]\r\nllama_model_loader: - tensor  265:           blk.29.ffn_gate.weight f16      [  4096, 11008,     1,     1 ]\r\nllama_model_loader: - tensor  266:             blk.29.ffn_up.weight f16      [  4096, 11008,     1,     1 ]\r\nllama_model_loader: - tensor  267:           blk.29.ffn_norm.weight f32      [  4096,     1,     1,     1 ]\r\nllama_model_loader: - tensor  268:             blk.29.attn_k.weight f16      [  4096,  4096,     1,     1 ]\r\nllama_model_loader: - tensor  269:        blk.29.attn_output.weight f16      [  4096,  4096,     1,     1 ]\r\nllama_model_loader: - tensor  270:             blk.29.attn_q.weight f16      [  4096,  4096,     1,     1 ]\r\nllama_model_loader: - tensor  271:             blk.29.attn_v.weight f16      [  4096,  4096,     1,     1 ]\r\nllama_model_loader: - tensor  272:          blk.30.attn_norm.weight f32      [  4096,     1,     1,     1 ]\r\nllama_model_loader: - tensor  273:           blk.30.ffn_down.weight f16      [ 11008,  4096,     1,     1 ]\r\nllama_model_loader: - tensor  274:           blk.30.ffn_gate.weight f16      [  4096, 11008,     1,     1 ]\r\nllama_model_loader: - tensor  275:             blk.30.ffn_up.weight f16      [  4096, 11008,     1,     1 ]\r\nllama_model_loader: - tensor  276:           blk.30.ffn_norm.weight f32      [  4096,     1,     1,     1 ]\r\nllama_model_loader: - tensor  277:             blk.30.attn_k.weight f16      [  4096,  4096,     1,     1 ]\r\nllama_model_loader: - tensor  278:        blk.30.attn_output.weight f16      [  4096,  4096,     1,     1 ]\r\nllama_model_loader: - tensor  279:             blk.30.attn_q.weight f16      [  4096,  4096,     1,     1 ]\r\nllama_model_loader: - tensor  280:             blk.30.attn_v.weight f16      [  4096,  4096,     1,     1 ]\r\nllama_model_loader: - tensor  281:          blk.31.attn_norm.weight f32      [  4096,     1,     1,     1 ]\r\nllama_model_loader: - tensor  282:           blk.31.ffn_down.weight f16      [ 11008,  4096,     1,     1 ]\r\nllama_model_loader: - tensor  283:           blk.31.ffn_gate.weight f16      [  4096, 11008,     1,     1 ]\r\nllama_model_loader: - tensor  284:             blk.31.ffn_up.weight f16      [  4096, 11008,     1,     1 ]\r\nllama_model_loader: - tensor  285:           blk.31.ffn_norm.weight f32      [  4096,     1,     1,     1 ]\r\nllama_model_loader: - tensor  286:             blk.31.attn_k.weight f16      [  4096,  4096,     1,     1 ]\r\nllama_model_loader: - tensor  287:        blk.31.attn_output.weight f16      [  4096,  4096,     1,     1 ]\r\nllama_model_loader: - tensor  288:             blk.31.attn_q.weight f16      [  4096,  4096,     1,     1 ]\r\nllama_model_loader: - tensor  289:             blk.31.attn_v.weight f16      [  4096,  4096,     1,     1 ]\r\nllama_model_loader: - tensor  290:               output_norm.weight f32      [  4096,     1,     1,     1 ]\r\nllama_model_loader: - kv   0:                       general.architecture str     \r\nllama_model_loader: - kv   1:                               general.name str     \r\nllama_model_loader: - kv   2:                       llama.context_length u32     \r\nllama_model_loader: - kv   3:                     llama.embedding_len
…
nPermuting layer 57\r\nPermuting layer 58\r\nPermuting layer 59\r\nPermuting layer 60\r\nPermuting layer 61\r\nPermuting layer 62\r\nPermuting layer 63\r\nPermuting layer 64\r\nPermuting layer 65\r\nPermuting layer 66\r\nPermuting layer 67\r\nPermuting layer 68\r\nPermuting layer 69\r\nPermuting layer 70\r\nPermuting layer 71\r\nPermuting layer 72\r\nPermuting layer 73\r\nPermuting layer 74\r\nPermuting layer 75\r\nPermuting layer 76\r\nPermuting layer 77\r\nPermuting layer 78\r\nPermuting layer 79\r\nmodel.embed_tokens.weight                        -> token_embd.weight                        | F32    | [32000, 8192]\r\nmodel.layers.0.input_layernorm.weight            -> blk.0.attn_norm.weight                   | F32    | [8192]\r\nmodel.layers.0.mlp.down_proj.weight              -> blk.0.ffn_down.weight                    | F32    | [8192, 28672]\r\nmodel.layers.0.mlp.gate_proj.weight              -> blk.0.ffn_gate.weight                    | F32    | [28672, 8192]\r\nmodel.layers.0.mlp.up_proj.weight                -> blk.0.ffn_up.weight                      | F32    | [28672, 8192]\r\nmodel.layers.0.post_attention_layernorm.weight   -> blk.0.ffn_norm.weight                    | F32    | [8192]\r\nmodel.layers.0.self_attn.k_proj.weight           -> blk.0.attn_k.weight                      | F32    | [1024, 8192]\r\nmodel.layers.0.self_attn.o_proj.weight           -> blk.0.attn_output.weight                 | F32    | [8192, 8192]\r\nTraceback (most recent call last):\r\n  File \"/workspace/git/gguf-llama/./convert.py\", line 1193, in <module>\r\n    main()\r\n  File \"/workspace/git/gguf-llama/./convert.py\", line 1180, in main\r\n    model   = convert_model_names(model, params)\r\n  File \"/workspace/git/gguf-llama/./convert.py\", line 984, in convert_model_names\r\n    raise Exception(f\"Unexpected tensor name: {name}\")\r\nException: Unexpected tensor name: model.layers.0.self_attn.q_proj.lora_A.default.weight\r\n```",
…
