…
    "body": "### Prerequisites\n\n- [X] I searched using keywords relevant to my issue to make sure that I am creating a new issue that is not already open (or closed).\n- [X] I reviewed the [Discussions](https://github.com/ggerganov/llama.cpp/discussions), and have a new useful question to share that cannot be answered within Discussions.\n\n### Background Description\n\nI am aiming to add support for `jina-embeddings-v2-base-code` https://huggingface.co/jinaai/jina-embeddings-v2-base-code which has this architecture:\r\n\r\n```\r\nJinaBertModel(\r\n  (embeddings): JinaBertEmbeddings(\r\n    (word_embeddings): Embedding(61056, 768, padding_idx=0)\r\n    (token_type_embeddings): Embedding(2, 768)\r\n    (LayerNorm): LayerNorm((768,), eps=1e-12, elementwise_affine=True)\r\n    (dropout): Dropout(p=0.0, inplace=False)\r\n  )\r\n  (encoder): JinaBertEncoder(\r\n    (layer): ModuleList(\r\n      (0-11): 12 x JinaBertLayer(\r\n        (attention): JinaBertAttention(\r\n          (self): JinaBertSelfAttention(\r\n            (query): Linear(in_features=768, out_features=768, bias=True)\r\n            (key): Linear(in_features=768, out_features=768, bias=True)\r\n            (value): Linear(in_features=768, out_features=768, bias=True)\r\n            (layer_norm_q): LayerNorm((768,), eps=1e-12, elementwise_affine=True)\r\n            (layer_norm_k): LayerNorm((768,), eps=1e-12, elementwise_affine=True)\r\n            (dropout): Dropout(p=0.0, inplace=False)\r\n          )\r\n          (output): JinaBertSelfOutput(\r\n            (dense): Linear(in_features=768, out_features=768, bias=True)\r\n            (LayerNorm): LayerNorm((768,), eps=1e-12, elementwise_affine=True)\r\n            (dropout): Dropout(p=0.0, inplace=False)\r\n          )\r\n        )\r\n        (layer_norm_1): LayerNorm((768,), eps=1e-12, elementwise_affine=True)\r\n        (layer_norm_2): LayerNorm((768,), eps=1e-12, elementwise_affine=True)\r\n        (mlp): JinaBertGLUMLP(\r\n          (act): GELU(approximate='none')\r\n          (up_gated_layer): Linear(in_features=768, out_features=6144, bias=False)\r\n          (down_layer): Linear(in_features=3072, out_features=768, bias=True)\r\n          (dropout): Dropout(p=0.0, inplace=False)\r\n        )\r\n      )\r\n    )\r\n  )\r\n  (pooler): JinaBertPooler(\r\n    (dense): Linear(in_features=768, out_features=768, bias=True)\r\n    (activation): Tanh()\r\n  )\r\n)\r\n```\r\nThe problem is that it has these 2 \"extra\" LayerNorm layers \r\n        (layer_norm_1): LayerNorm((768,), eps=1e-12, elementwise_affine=True)\r\n        (layer_norm_2): LayerNorm((768,), eps=1e-12, elementwise_affine=True)\r\n\r\nWhen trying to add these to the model description I do not know how to handle.\r\n\r\nProblems/Questions:\r\n\r\n- GGUF only accepts one tensor per type (I cannot add this ones to `MODEL_TENSOR.LAYER_OUT_NORM` as convertor will complain that it is duplicated. (Should I create specific entries types for these specific layers?)\r\n\r\n- When definin
…
